Snake+AI/model/model.pth (torch, 16787 bytes, 4 tensors)

linear1.weight f4 [256, 11]
0	0x3e96d218	0.29457164
1	0x3e1a9f9a	0.15099946
2	0x3ef29e79	0.4738653
3	0xbd305a59	-0.043054912
4	0x3cddf778	0.027095541
5	0x3d4faf15	0.05070408
6	0xbcfe9548	-0.031077042
7	0x3e75fe9c	0.24022907
8	0x3e2ddded	0.16979189
9	0xbe9541c6	-0.29151744
10	0xbdec55dd	-0.115398146
11	0xbdfbf5bb	-0.12302729
12	0x3f00ea86	0.50357854
13	0xbda6ae7a	-0.081387475
14	0xbdd3199d	-0.1030762
15	0x3e4ddd6d	0.20103998
16	0x3e57bd4c	0.21068305
17	0x3cf52558	0.029925033
18	0x3e791f8e	0.24328443
19	0xbe230213	-0.1591876
20	0xbd329160	-0.04359567
21	0x3deedb6a	0.11662944
22	0x3e31f1d2	0.17377403
23	0x3eb6fee4	0.3574134
24	0x3e905d27	0.2819607
25	0x3e848dba	0.2588938
26	0x3dd3a5c1	0.103343494
27	0x3e30bbb5	0.17259105
28	0xbe07d0f4	-0.13263303
29	0x3e41ad4d	0.18913765
30	0x3dec0bb3	0.11525669
31	0x3e026376	0.12733254
32	0x3e8ae270	0.27125883
33	0xbe067912	-0.13132122
34	0xbe282326	-0.16419658
35	0x3d7f168e	0.06227737
36	0x3e70f552	0.23531082
37	0xbcadb4ba	-0.021204341
38	0x3ddc2cd6	0.10750739
39	0xbe45ba2e	-0.19309303
40	0x3c807566	0.01568098
41	0x3e7b937d	0.24567981
42	0xbe8b9385	-0.27260986
43	0x3e22038b	0.15821664
44	0x3e4a1168	0.19733202
45	0xbf11a80d	-0.5689705
46	0x3e87e829	0.26544312
47	0x3d97216f	0.07379424
48	0x3df0115f	0.11722063
49	0x3e8d56fc	0.27605426
50	0x3e185523	0.14876227
51	0x3d5d80f5	0.05407806
52	0x3dde2ec7	0.10848766
53	0x3c1f1a00	0.009710789
54	0x3ebfd166	0.37464446
55	0x3e4ed0cc	0.20196837
56	0x3e9d3699	0.30705717
57	0xbe38a2df	-0.1803088
58	0xbdf31dbc	-0.11870906
59	0xbd9462dc	-0.072454184
60	0x3e5f70cb	0.21820371
61	0xbe6ccbc9	-0.23124613
62	0x3eb2cc2e	0.34921402
63	0x3e1948f0	0.1496923
64	0x3ddd599a	0.10808106
65	0x3e5b4239	0.2141198
66	0x3c8bf3f5	0.017084101
67	0x3d1c8c47	0.038219716
68	0xbe56d634	-0.2098015
69	0xbe7a4f9f	-0.24444436
70	0x3de22e8f	0.110440366
71	0x3d434d2e	0.047681026
72	0xbd35520b	-0.044267695
73	0xbe890f43	-0.26769456
74	0x3ddc5d19	0.107599445
75	0xbeae4e13	-0.3404394
76	0x3e243cb8	0.16038787
77	0xbe291b71	-0.16514374
78	0x3eb07228	0.34462094
79	0x3d2c26c0	0.042029142
80	0xbea209bc	-0.31648052
81	0xbea74a09	-0.32673672
82	0x3e7dab5f	0.24772404
83	0x3eaac738	0.33355117
84	0xbe814163	-0.252452
85	0xbe287331	-0.16450192
86	0x3e0284e0	0.12746
87	0x3dac0028	0.08398467
88	0xbe843aed	-0.25826207
89	0xbdf7995f	-0.120898
90	0x3ee67355	0.45009866
91	0xbe1833d5	-0.14863522
92	0x3e414b10	0.1887629
93	0x3e801c61	0.2502165
94	0x3d5e1f0b	0.054228824
95	0xbe24ed38	-0.16106117
96	0x3e198ca7	0.14995061
97	0x3e57b472	0.21064928
98	0xbad90465	-0.0016557096
99	0x3cff9542	0.031199101
100	0x3d03e5e0	0.032201648
101	0x3d0a51d2	0.033769436
102	0x3cd3264d	0.0257751
103	0x3be5a9b1	0.007008754
104	0xbea6a674	-0.3254887
105	0x3b5a6c95	0.003332888
106	0xbeace31b	-0.33767018
107	0xbc8e476c	-0.017368041
108	0x3e92a8aa	0.28644305
109	0xbda9b6f9	-0.082868524
110	0xbe36f88a	-0.17868248
111	0xbe26cd09	-0.16289152
112	0xbdd3f700	-0.10349846
113	0xbe90fa32	-0.28315884
114	0xbcd4adb2	-0.02596173
115	0xbe37545d	-0.17903276
116	0x3d2798d1	0.04091722
117	0x3d912e34	0.07088891
118	0xbd1cbe4c	-0.03826742
119	0xbe9259f3	-0.2858425
120	0x3e63ba16	0.22238955
121	0x3e783dbe	0.24242303
122	0x3ef67221	0.48133948
123	0xbe986ff7	-0.29772922
124	0x3e2e447b	0.1701831
125	0x3e66a46b	0.22523658
126	0x3e050891	0.12991549
127	0x3e80bc8b	0.25143847
128	0x3d8223d4	0.0635449
129	0xbda3d35d	-0.07999299
130	0x3e461a70	0.19346023
131	0xbe2a9f36	-0.16662297
132	0x3ee0222f	0.4377608
133	0x3e9bc11d	0.3042077
134	0xbe9f3e23	-0.31102094
135	0x3db489db	0.08815356
136	0x3e147e93	0.14501409
137	0x3da9d270	0.08292091
138	0xbd9ac13c	-0.07556388
139	0x3e0a31d4	0.1349557
140	0x3ce09a1a	0.027417231
141	0x3dae2651	0.08503402
142	0x3e95721f	0.2918863
143	0x3e3c08a6	0.18362674
144	0x3ee04e2b	0.43809637
145	0x3e6bd9e0	0.23032331
146	0x3e225dda	0.15856114
147	0x3e0e3920	0.13888979
148	0xbd1d4705	-0.038397808
149	0x3e39e2f8	0.18152988
150	0xbce06fb7	-0.02739702
151	0xbe9fc4f3	-0.31204948
152	0xbe1d53df	-0.15364026
153	0x3c543ec6	0.0129544195
154	0xbe7581eb	-0.23975341
155	0xbe6d3d8c	-0.2316801
156	0x3dd54ff8	0.104156435
157	0x3e378a2d	0.17923804
158	0x3e77c74c	0.2419712
159	0x3e9b0dcf	0.30283973
160	0xbdb2be34	-0.087276846
161	0xbdcf3826	-0.10118131
162	0x3e34b036	0.17645344
163	0xbe42bafe	-0.19016644
164	0x3aeaf0e3	0.0017924573
165	0xbd5a113d	-0.053239096
166	0xbea3b1c4	-0.31971562
167	0xbec24c83	-0.37949
168	0xbe9923c7	-0.29910108
169	0xbcce7d86	-0.025206339
170	0xbd77ae42	-0.06046892
171	0xbe14f594	-0.14546806
172	0x3cc6a97a	0.024250735
173	0xbd45efd0	-0.048324406
174	0xbe9785bf	-0.29594228
175	0x3c930fec	0.017951928
176	0x3ea29502	0.3175431
177	0x3e0f4478	0.13990963
178	0xbeb2a05b	-0.34887967
179	0xbe8fb013	-0.2806402
180	0xbe5753e2	-0.21028093
181	0xbea0abf8	-0.31381202
182	0xbe4c4429	-0.19947876
183	0x3e9ac83d	0.30230895
184	0x3ea1f0c6	0.31629008
185	0x3e2673e1	0.16255142
186	0x3de27760	0.11057925
187	0x3eaba28f	0.3352246
188	0xbeb5f198	-0.35535884
189	0x3d3d579d	0.046226133
190	0xbe866e5e	-0.26256078
191	0x3e661d78	0.22472179
192	0x3eb6542d	0.35611096
193	0xbd886148	-0.0665918
194	0x3e46f9ec	0.19431275
195	0xbdbfe664	-0.093701154
196	0xbeb9de27	-0.363023
197	0x3c920da3	0.017828768
198	0xbc256b61	-0.010096402
199	0xbe88ed3a	-0.2674349
200	0x3cc97ad8	0.02459471
201	0x3d8584db	0.06519481
202	0x3e92e043	0.28686723
203	0x3e1c5d55	0.15269978
204	0xbe97ff5e	-0.29687017
205	0x3e7370e6	0.23773536
206	0x3d6a387e	0.05718278
207	0xb9c24ab8	-0.00037058233
208	0x3bc7417b	0.006080804
209	0x3e533e88	0.20629323
210	0xbe81524f	-0.2525811
211	0x3e96e3ff	0.29470822
212	0xbb79b1a5	-0.003810027
213	0x3ec75f7e	0.38940042
214	0x3da98769	0.082777806
215	0x3e89a251	0.2688165
216	0x3e1a81b7	0.15088545
217	0xbe9d87cb	-0.30767664
218	0x3e15087c	0.14554018
219	0x3e070071	0.13183762
220	0xbe50dccf	-0.20396732
221	0x3f0b4635	0.54404
222	0xbd9c58ac	-0.076341
223	0x3d6f546f	0.05843013
224	0xbe748416	-0.23878512
225	0x3e4d0139	0.20019998
226	0xbda4d75d	-0.0804889
227	0xbc6d636a	-0.014489034
228	0x3e595f10	0.2122767
229	0xbe89e6ce	-0.26933903
230	0x3e579465	0.21052702
231	0x3e9a29a8	0.30109906
232	0xbe29ada8	-0.16570151
233	0x3ee9b5d5	0.4564654
234	0xbc2ac4eb	-0.010422925
235	0x3e0015d1	0.12508322
236	0x3e398545	0.18117245
237	0xbe650133	-0.22363739
238	0xbcf321ea	-0.029679257
239	0x3e74a38b	0.23890512
240	0x3d47fa19	0.048822496
241	0x3e677a1b	0.22605173
242	0xbe7f37c2	-0.24923614
243	0xbd7116cd	-0.058859635
244	0x3ecc6d8d	0.3992733
245	0xbd2d7d38	-0.042355746
246	0xbd238b7e	-0.039927952
247	0x3e44aed4	0.19207317
248	0x3e3cbc5e	0.18431231
249	0x3b9c49e4	0.0047695506
250	0x3d06cbf1	0.032909337
251	0x3ea7fd79	0.32810572
252	0x3e97fab1	0.2968345
253	0x3eaba142	0.33521467
254	0xbe980711	-0.2969289
255	0x3e8bc905	0.27301803

linear1.bias f4 [256]
0	0x3e8feca1	0.2811022
1	0xbe860304	-0.26174176
2	0x3d9ebce2	0.0775087
3	0x3e15a2e9	0.14612927
4	0xbe0cc58a	-0.1374723
5	0x3e02be69	0.12767948
6	0xbe76f122	-0.24115422
7	0x3b53f933	0.003234458
8	0x3d93bb86	0.07213502
9	0xbdf08f1e	-0.117460474
10	0xbe2cad1f	-0.16862915
11	0x3e42bde2	0.19017747
12	0x3d56d057	0.052444782
13	0x3e2b03de	0.16700694
14	0xbd840e30	-0.064480186
15	0x3e7b4513	0.24538068
16	0x3e251633	0.1612175
17	0x3c5a48a5	0.013322984
18	0xbe61cee0	-0.22051573
19	0xbe63194d	-0.2217762
20	0x3c8ec580	0.01742816
21	0xbcc9d348	-0.02463688
22	0xbe829862	-0.25506884
23	0xbd2aef02	-0.04173184
24	0x3d993bbe	0.07482098
25	0xbe4b30e3	-0.19842868
26	0x3e0f81af	0.14014314
27	0x3e7942e9	0.2434193
28	0x3d7532e2	0.05986298
29	0x3dcbd5b6	0.099528715
30	0x3d1e7bcb	0.038692277
31	0x3eb652da	0.35610086
32	0x3dc82789	0.09773166
33	0x3bc5e2fa	0.0060390206
34	0xbe8f403b	-0.2797869
35	0x3d55ff17	0.052245226
36	0xbd64e327	-0.05588069
37	0x3e563ba9	0.20921196
38	0x3e83545a	0.25650293
39	0xbe33904c	-0.17535514
40	0xbe49d938	-0.19711769
41	0x3cac1358	0.021005318
42	0xbe98c53c	-0.29837978
43	0x3e13c7f4	0.14431745
44	0xbd76bfe5	-0.0602416
45	0x3dd6cbf3	0.10488119
46	0x3e35cf26	0.17754802
47	0x3e9a011e	0.30078977
48	0x3e610f8d	0.21978588
49	0x3d8038a4	0.06260803
50	0x3e96989c	0.29413307
51	0x3e4a9f1c	0.19787258
52	0xbd232e99	-0.03983936
53	0xbe8cc193	-0.27491435
54	0xbd5fdb37	-0.05465242
55	0x3ea0c555	0.31400552
56	0xbd2d7ca4	-0.042355195
57	0x3dc7ff04	0.09765437
58	0x3e10f602	0.14156345
59	0x3b252066	0.0025196313
60	0xbe29b05f	-0.16571186
61	0xbe1d1b53	-0.15342455
62	0xbe6a4f23	-0.22881751
63	0xbda12b14	-0.078695446
64	0xbe3ddb5a	-0.18540707
65	0x3d81ed18	0.0634405
66	0xbd84833f	-0.06470346
67	0x3e185e56	0.14879736
68	0x3e1e27df	0.15444897
69	0x3d96ff0b	0.07372864
70	0x3db71e75	0.08941356
71	0x3e47a666	0.1949707
72	0x3e67ca2e	0.22635719
73	0x3bb74492	0.005592891
74	0xbdecc5e0	-0.11561179
75	0x3dbf0516	0.09327142
76	0xbe4878b4	-0.19577295
77	0xbe8cb6c9	-0.27483204
78	0xbcf3e22b	-0.029770931
79	0x3e1f77b5	0.15573008
80	0x3eac88b9	0.3369806
81	0xbdfa3d06	-0.122186705
82	0xbe64fc89	-0.2236196
83	0xbe3fc8ff	-0.18729018
84	0x3e86d846	0.2633688
85	0xbea9a1ed	-0.33131352
86	0xbbc96712	-0.00614632
87	0xbe09535e	-0.13410708
88	0x3de2d072	0.11074914
89	0xbe682375	-0.22669776
90	0x3d60c8c7	0.054878976
91	0x3d985c26	0.07439451
92	0x3e9d37d1	0.30706647
93	0xbdda944d	-0.106728174
94	0xbe73b177	-0.23798166
95	0xbe1a9aa8	-0.15098059
96	0xbe2f00b4	-0.17090112
97	0xbe15ede5	-0.14641531
98	0xbc274aef	-0.010210737
99	0x3e4bca43	0.19901375
100	0x3e05e55c	0.13075775
101	0x3e81ae8d	0.25328484
102	0xbd8b5963	-0.068041585
103	0xbd274046	-0.04083278
104	0x3d8f572a	0.06999047
105	0x3e9296c5	0.28630653
106	0x3dd70d15	0.10500542
107	0xbdd6b24e	-0.10483228
108	0x3dca7ea5	0.09887437
109	0x3e873646	0.26408595
110	0xbe922772	-0.2854572
111	0x3e63d34a	0.22248569
112	0x3de3c00e	0.11120616
113	0xbde7e42d	-0.11322818
114	0xbd78155e	-0.060567252
115	0xbe4922ba	-0.19642153
116	0x3e462f56	0.19353995
117	0x3e48bb26	0.19602641
118	0x3d78b1b3	0.060716342
119	0x3d79ff78	0.06103465
120	0xbe5859ad	-0.21127959
121	0xbdf9f2ab	-0.12204488
122	0xbdb14248	-0.0865522
123	0xbdc87977	-0.097887926
124	0x3e7e2af0	0.24821067
125	0xbe9400c0	-0.28906822
126	0x3e4f8b4e	0.20267984
127	0x3d694188	0.05694726
128	0x3e25649b	0.16151659
129	0xbe8df27c	-0.27724063
130	0xbe3e0d75	-0.18559821
131	0xbbeba323	-0.0071910783
132	0xbe79d472	-0.24397448
133	0xbe010164	-0.12598187
134	0x3e068f8d	0.13140698
135	0xbe009ba0	-0.12559366
136	0x3e94f92c	0.29096353
137	0xbd8ce42d	-0.068794586
138	0xbe7360ef	-0.23767446
139	0x3e681c3e	0.22667024
140	0x3d7f6f9b	0.062362295
141	0x3d015457	0.031574573
142	0xbe1d2a5b	-0.15348189
143	0xbe1d3c0f	-0.15354942
144	0x3e37abc4	0.17936617
145	0x3e7eaf57	0.24871574
146	0x3dc2c68c	0.09510526
147	0x3de00094	0.1093761
148	0x3dd16678	0.102246225
149	0x3ec2f495	0.38077226
150	0xbd2a65a8	-0.041600853
151	0x3e97078e	0.2949795
152	0xbe4e6f7f	-0.2015972
153	0xbe3d46a1	-0.18483974
154	0xbd03c58d	-0.03217082
155	0xbe5da5b7	-0.21645246
156	0x3cd2f21c	0.025750212
157	0x3e39904a	0.18121448
158	0x3dc60354	0.096686035
159	0xbd41fa21	-0.047357682
160	0x3e0096ef	0.12557577
161	0xbe2f087a	-0.17093077
162	0x3ddfafab	0.10922178
163	0xbd17335b	-0.03691421
164	0x3d59b49c	0.05315076
165	0xbe2f821b	-0.17139475
166	0xbd5f21a5	-0.054475445
167	0xbe2155da	-0.15755406
168	0xbde70b76	-0.11281483
169	0xbe0e3286	-0.1388646
170	0xbcc70682	-0.024295095
171	0xbdd63c7d	-0.10460756
172	0x3e83778f	0.25677153
173	0x3ce06690	0.027392656
174	0xbe1ebdfe	-0.15502164
175	0x3deb532f	0.114904754
176	0x3e30a4df	0.17250393
177	0xbe2c256b	-0.16811149
178	0xbd896618	-0.06708926
179	0x3e45caf8	0.19315708
180	0xbd00e13b	-0.031464797
181	0xbd3f85c2	-0.04675842
182	0xbe280947	-0.16409789
183	0xbe907fb6	-0.28222436
184	0xbd39e2db	-0.04538236
185	0xbe000673	-0.1250246
186	0xbdddb700	-0.1082592
187	0x3e5cf80b	0.21578996
188	0xbe0ad46d	-0.13557597
189	0x3c46943d	0.012120304
190	0x3dcbd82b	0.0995334
191	0xbcbcf06e	-0.023063865
192	0xbe038c7d	-0.12846561
193	0xbdbecbfb	-0.0931625
194	0xbe0a0a67	-0.1348053
195	0xbc965a17	-0.018353505
196	0x3d81a8f0	0.063310504
197	0xbe289cf3	-0.16466121
198	0x3ea4a724	0.32158768
199	0x3e446ec6	0.19182882
200	0x3c70083b	0.0146504
201	0xbe712a15	-0.2355121
202	0xbe235e56	-0.15953955
203	0x3e26c358	0.16285455
204	0xbe63c552	-0.2224324
205	0x3ddc3955	0.10753123
206	0xbde309e4	-0.11085871
207	0x3e8aa506	0.27079028
208	0xbd45b48b	-0.048267882
209	0xbe0d41cc	-0.13794631
210	0x3e22a11c	0.15881771
211	0xbbee085a	-0.007264179
212	0xbda26451	-0.0792929
213	0xbd8d947d	-0.069130875
214	0x3e798314	0.24366409
215	0x3e1e8e83	0.15484051
216	0x3d765d88	0.060147792
217	0xbeb6c994	-0.35700667
218	0x3e8df00e	0.2772221
219	0xbe5c514d	-0.21515389
220	0xbdb253cf	-0.087073915
221	0xbc79feb2	-0.015258478
222	0x3dcb1c2a	0.09917481
223	0xbe9cba4e	-0.3061089
224	0xbd6aa395	-0.05728491
225	0xbdac4ef0	-0.08413494
226	0xbdb043cb	-0.086066805
227	0x3e29108f	0.16510223
228	0x3e7341b4	0.23755533
229	0xbe8c0501	-0.27347568
230	0xbe6ba379	-0.23011579
231	0x3cc00cd2	0.023443613
232	0x3e942aef	0.28939006
233	0x3e60c55a	0.21950284
234	0x3c956558	0.018236801
235	0x3dcabf85	0.09899811
236	0xbe20e9a8	-0.15714133
237	0x3eac6a17	0.3367469
238	0x3e476818	0.19473302
239	0x3e13fb1a	0.14451256
240	0x3e775d75	0.24156745
241	0x3d9c54d5	0.07633368
242	0xbd44fbb4	-0.048091605
243	0x3c0d9f11	0.008643881
244	0xbc06847b	-0.008210297
245	0xbd84b38c	-0.06479558
246	0x3de1641b	0.11005422
247	0x3db988c6	0.090592906
248	0x3e21a98b	0.15787332
249	0x3db4f63e	0.088360295
250	0x3e046828	0.12930357
251	0xbc1f6e3a	-0.00973087
252	0x3e62e264	0.22156674
253	0x3da2fdab	0.079585396
254	0x3d24a810	0.04019934
255	0xbd16defc	-0.03683375

linear2.weight f4 [3, 256]
0	0xbd97bfdc	-0.07409641
1	0xbc405b5b	-0.011740531
2	0xbdec387d	-0.11534212
3	0xbc9ab2e6	-0.018884134
4	0xbd8feb8f	-0.07027351
5	0xbdfa470a	-0.12220581
6	0xbc21157a	-0.009831781
7	0x3e8586bb	0.26079354
8	0x3e376719	0.17910422
9	0xbd8ab190	-0.067721486
10	0x3d11eab6	0.03562423
11	0xbdb1614b	-0.08661135
12	0xbe13818d	-0.14404888
13	0xbd76dd61	-0.060269717
14	0xbb3377dc	-0.0027384674
15	0xbc1a84be	-0.009431062
16	0xbdf292e5	-0.11844424
17	0xbe836d73	-0.2566944
18	0xbd3fc066	-0.046814345
19	0xbe15ffee	-0.1464841
20	0xbd32cacf	-0.043650445
21	0xbe004726	-0.12527141
22	0x3e011483	0.12605481
23	0xbe58ec76	-0.21183953
24	0xbd9f431c	-0.07776472
25	0x3de3934a	0.111120775
26	0x3dbb95ee	0.09159456
27	0xbd68ec31	-0.056865875
28	0xbd26acfb	-0.04069231
29	0xbe1890eb	-0.14899032
30	0xbe2fa285	-0.1715184
31	0xbdb8181e	-0.08988975
32	0xbe21aada	-0.15787831
33	0xbde36a3c	-0.11104247
34	0xbe27475f	-0.1633582
35	0xbde5648e	-0.1120082
36	0x3da662d5	0.081243195
37	0x3b763765	0.0037569639
38	0xbdc5c7fb	-0.09657284
39	0x3dc8eda7	0.098109536
40	0x3c7f1c80	0.01557076
41	0xbe30c77b	-0.17263596
42	0x3da51a84	0.08061698
43	0x3e05af1f	0.13055085
44	0xbdc48cfa	-0.09597202
45	0xbdae0175	-0.08496372
46	0x3d1b9a1f	0.03798878
47	0x3d276801	0.04087067
48	0xbd12c468	-0.03583184
49	0xbda58a91	-0.0808307
50	0xbe15620a	-0.1458818
51	0xbdab8928	-0.0837577
52	0xbd55ebfe	-0.052227013
53	0xbe0d88e3	-0.1382175
54	0x3e45ed88	0.19328892
55	0xbc2c31dd	-0.010509935
56	0x3d5d18bf	0.053978678
57	0xbde0437e	-0.10950373
58	0xbd8cc39a	-0.068732455
59	0x3de99c19	0.114067264
60	0x3e5fa9f2	0.21842173
61	0x3d8c7d48	0.06859833
62	0xbcefdeaa	-0.02928098
63	0xbdbfcd29	-0.09365303
64	0xbde2c161	-0.1107204
65	0x3d6d89c9	0.05799273
66	0xbcee2762	-0.029071514
67	0x3dc1185b	0.094284736
68	0xbc9bb76a	-0.019008357
69	0xbe3a4a6a	-0.18192449
70	0xbdff4d35	-0.12465898
71	0x3dfd6e2c	0.12374529
72	0xbd265d28	-0.040616184
73	0xbdcc7bc7	-0.09984546
74	0xbe1358c2	-0.14389327
75	0x3d933ebe	0.071897015
76	0x3e10cb93	0.14140157
77	0x3d0b8af8	0.034068078
78	0xbde5cade	-0.112203345
79	0xbd9f5fe0	-0.077819586
80	0x3e0ab9d0	0.13547444
81	0x3e201873	0.15634327
82	0x3b2f35c3	0.0026734925
83	0x3d7e22dc	0.062044963
84	0x3d122ebb	0.035689097
85	0xbc50ebb3	-0.012751508
86	0xbe06126c	-0.13092965
87	0xbe1ea2cd	-0.15491791
88	0xbdd78755	-0.105238594
89	0xbc382c98	-0.011241101
90	0xbdec3f1a	-0.11535473
91	0x3d99fb68	0.07518655
92	0xbdca4821	-0.09877039
93	0xbe252361	-0.16126777
94	0x3d42f032	0.04759235
95	0xbc40b052	-0.011760788
96	0xbc3724d6	-0.011178216
97	0xbd4be8b7	-0.04978248
98	0x3dc6c618	0.09705752
99	0x3e18e117	0.14929615
100	0xbcdf0b56	-0.027227085
101	0xbdf72adf	-0.12068724
102	0xbe64d008	-0.22344983
103	0xbdca97a9	-0.09892208
104	0xbe38bf33	-0.18041687
105	0x3ca46b74	0.020070769
106	0xbcc5aa3a	-0.024129022
107	0xbd741534	-0.059590533
108	0x3ca408f6	0.020023804
109	0xbdbb69a6	-0.0915101
110	0x3d987592	0.074443
111	0x3dbb7601	0.09153367
112	0x3d36b320	0.04460442
113	0x3a49e022	0.000770094
114	0x3e1ce566	0.15321884
115	0xbd34a920	-0.044106603
116	0xbdc362a0	-0.095402956
117	0xbd80663f	-0.06269502
118	0xbe337651	-0.17525603
119	0xbd95c46e	-0.073128566
120	0xbe0423ed	-0.1290433
121	0xbc8d61a1	-0.017258467
122	0xbe3e08c4	-0.18558031
123	0x3dbf6f05	0.09347347
124	0x3d0757f3	0.03304286
125	0xbd385b3e	-0.04500889
126	0xbcf01065	-0.029304693
127	0xbe2ef6f1	-0.17086388
128	0x3d5e73d4	0.05430968
129	0x3cfb6d15	0.030691663
130	0xbd2c2597	-0.042028036
131	0xbd9a16ef	-0.075239055
132	0xbe128af5	-0.1431082
133	0x3cbb4975	0.022862175
134	0xbd35378a	-0.04424242
135	0x3d851221	0.064975984
136	0xbe05de2a	-0.1307303
137	0x3d9990ed	0.074983455
138	0x3dd70f6b	0.105009876
139	0x3d759159	0.059953067
140	0xbd251168	-0.040299803
141	0xbdee28dd	-0.11628888
142	0x3cfd9426	0.030954432
143	0xbe77b801	-0.24191286
144	0x3d64b7f6	0.0558395
145	0x3de74232	0.11291923
146	0x3e36edd5	0.17864163
147	0x3de3e1b0	0.11127031
148	0xbdba56ad	-0.09098563
149	0xbd993b7f	-0.07482051
150	0x3e72e7d4	0.23721248
151	0x3c31bf77	0.010848871
152	0x3db9b3a7	0.09067469
153	0x3d0295c8	0.031881124
154	0xbc235396	-0.009968659
155	0xbe93b291	-0.28847173
156	0xbdd45573	-0.10367861
157	0xbe14da25	-0.1453634
158	0xbe36bd26	-0.17845592
159	0x3e086e86	0.13323411
160	0xbddea268	-0.1087082
161	0xbbbd85c4	-0.0057837684
162	0x3c83a177	0.016068203
163	0xbdd82a74	-0.10554972
164	0xbe228182	-0.15869716
165	0x3d5c7688	0.053823978
166	0xbe22316b	-0.15839164
167	0x3de887b1	0.11354006
168	0x3e17a84e	0.14810297
169	0x3da7eae1	0.081990965
170	0xbdc5eea7	-0.0966466
171	0xbcb7c1f2	-0.022431348
172	0x3dd6aa9b	0.10481759
173	0xbd42ca4e	-0.047556214
174	0x3cfd9caf	0.030958502
175	0x3d0ac646	0.033880495
176	0xbe05de67	-0.13073121
177	0xbe458ae1	-0.1929126
178	0xbc8d4b85	-0.017247925
179	0xbb5f42c2	-0.003406689
180	0x3c099fbb	0.008399899
181	0xbda50489	-0.08057506
182	0x3ca522cb	0.020158192
183	0xbe1a3618	-0.15059698
184	0xbe06795a	-0.1313223
185	0x3c959dd5	0.018263737
186	0xbd90cb5c	-0.07070038
187	0xbd59b811	-0.053154055
188	0xbc503ed8	-0.012710296
189	0x3d9f3825	0.077743806
190	0x3e01b93e	0.1266832
191	0x3dacbd74	0.08434573
192	0xbc76ada0	-0.015056044
193	0xbcf05310	-0.029336482
194	0x3b2e5291	0.0026599506
195	0xbe74e26f	-0.23914503
196	0x3dd9be09	0.106319495
197	0xbd5aca1d	-0.053415406
198	0xbdd7093f	-0.104998104
199	0x3c6c5e22	0.01442674
200	0xbda34e3d	-0.07973907
201	0xbd0fd24c	-0.035112664
202	0x3dc0feef	0.09423625
203	0xbe0de4ea	-0.13856855
204	0xbb901cd4	-0.004397968
205	0xbe09c647	-0.13454543
206	0x3e2752bb	0.16340153
207	0x3e1892f0	0.14899802
208	0x3e10b402	0.14131168
209	0x3df051ad	0.117343284
210	0xbdb0abcd	-0.086265184
211	0x3e1c6c24	0.15275627
212	0xbd85db8c	-0.06536016
213	0x3cb3b7ea	0.021938283
214	0x3deeced9	0.11660547
215	0xbd5bb693	-0.053640913
216	0x3d9116f6	0.070844576
217	0xbc79653f	-0.015221893
218	0xbe0fc1ed	-0.1403882
219	0x3de17ea1	0.11010481
220	0x3e29cf3a	0.16582957
221	0xbe29fe02	-0.16600803
222	0xbd5b1330	-0.053485096
223	0x3d88a045	0.06671194
224	0x3dc45308	0.095861495
225	0xbdfa458e	-0.12220298
226	0xbe61abd2	-0.220382
227	0xbdf5002a	-0.11962922
228	0x3d70832d	0.05871885
229	0x3d2c1f8a	0.042022265
230	0xbd77db86	-0.06051209
231	0xbe3906dc	-0.18069023
232	0x3e13253f	0.14369677
233	0xbe07c642	-0.13259223
234	0x3c70a1a5	0.014686977
235	0xbe0b141e	-0.13581893
236	0xbd407d6f	-0.046994623
237	0x3e039fb9	0.12853898
238	0xbdf1681d	-0.11787436
239	0x3d485267	0.04890671
240	0x3dd59ed3	0.10430684
241	0xbde40aa8	-0.11134845
242	0xbd934fcd	-0.07192955
243	0xbe21750e	-0.15767309
244	0xbd900f68	-0.070341885
245	0xbe3eaad0	-0.18619847
246	0x3e137217	0.1439899
247	0xbe672e04	-0.22576147
248	0xbdb2c28a	-0.08728512
249	0xbd570377	-0.05249354
250	0x3d0c2b0d	0.034220744
251	0xbe77b231	-0.24189068
252	0xbdd660ea	-0.10467704
253	0x3d34cff3	0.04414363
254	0xbe147f1a	-0.1450161
255	0xbe37e312	-0.17957714

linear2.bias f4 [3]
0	0x3c321fd9	0.010871851
1	0xbbf9f7f1	-0.007628434
2	0xbde0912b	-0.109651886
