MachineLearinigFromScratch/mnist_model.npz (npz, 77846 bytes, 4 tensors)

w1 f8 [64, 128]
-0.048726631450366986 0.04201885665631891 0.030340528458955986 0.03210732450323882 0.054447964996349504 0.3297581309642559 -0.27933483943306 0.17480043546903834
0.029808511305695715 -0.13310711930810606 0.22303813779315748 -0.0403444542124604 0.02439707749190518 -0.0710978778723225 0.33778655778490213 -0.1269636168165753
0.07412149845195942 -0.1306905090493323 -0.11814325436534256 0.09798673814483011 0.06306015270268037 0.02064837672371412 -0.35345441351720625 -0.08390867249116125
-0.23638361510069478 0.10792461505934113 0.029263856811061636 0.3744652723202711 0.00535560387944007 0.06957186888917014 -0.2487698736755096 0.11549734253404703
-0.1229416415905047 0.007289915387713391 0.07641377646785828 -0.04352995820360649 -0.02759785696878116 -0.06768344653600634 -0.31023723215076193 -0.14549126600875706
0.14863558399424318 -0.04226189185160928 0.031278246677008285 0.24919557474522727 0.07008799181143376 0.14856460344589964 0.074241071092149 0.018840553030625033
0.016786182851637334 -0.1373966098120807 -0.19421379511276163 0.01073084093975512 0.038682431430918957 -0.002524998847758627 -0.07544508364684967 0.030339960578009056
0.10910567346254127 -0.03937833784901087 -0.16396210400278347 -0.20280297604898248 -0.0021084802433013502 -0.02606915406593878 -0.08963790864151028 -0.04537956364028578
0.06535587707021935 -0.04324499259055103 -0.25365938015421685 -0.028467566307706638 0.018929495383524467 0.024428309654714934 0.2550956634632968 0.008690846903896172
-0.2272968297542986 -0.29319139773585357 -0.02873148605823368 0.28445783436564 0.08344672633863515 0.2103166968421469 0.046458083630104806 0.12232146609640474
-0.5012508294423926 -0.11738062777836651 0.13957999373913318 -0.10646478441010733 -0.08639146651192657 -0.006374626726017763 0.06351987611119388 0.11722885120568521
0.07661041542067949 0.12601245943956124 0.4305554788206642 -0.2448730723834108 0.050120796349032305 0.3814570137964859 0.024983943128561246 -0.2222563879221205
0.0008713546462239882 -0.21061192053960737 -0.3700005236994843 -0.061658991806258744 0.20882206436402817 0.03914860034826428 -0.12892299504029042 -0.04515288955244006
0.26129569869660835 -0.12902575370137218 0.19841683172851007 0.11282493643067304 0.014787533945371276 -0.19782836184741312 -0.16417441221319395 0.18851644578269572
-0.10437702085786461 0.17423117254682696 0.09156184383617144 -0.15917197679840958 0.10777727527550103 -0.24007693551515874 0.05461250214453897 -0.10877196044143025
-0.12588779974856473 -0.18674633338470825 -0.19333239475897762 0.2502840933745642 0.35508219274326563 0.0510151923614203 0.11457445302148868 0.23325569401558685
0.05224109945664892 0.15261003168496778 -0.22132731081032114 -0.2739307821689121 -0.2338588501997478 -0.2794833951130047 0.27406124059274656 -0.30849722998705487
0.13974311477843332 0.1598610718079428 0.0490819923089753 -0.0040710913729653095 0.07651353570146485 0.20113956750250211 -0.05355937032422855 0.2322230188382668
-0.01640774578749252 0.003647795756022608 0.00018997101479685877 0.11264174023788072 -0.1434071247995347 -0.002750377719631027 0.05373477527267297 -0.26029435812107155
0.13648168483001882 0.09471349418601031 -0.1720703402541608 -0.09409448047834557 -0.09533323348260565 -0.10929002661306313 -0.0623374774213146 0.0791212244395952
0.24118658012045918 0.08541691921768335 -0.11188257604522724 -0.09255700157730018 0.08722368826006566 0.0028402267217967924 0.22865166587715324 0.09358389733943802
-0.18347737425794608 -0.15707388240358075 0.0687773217176003 0.3796346001101584 0.08859303161241745 0.22958075610134884 -0.23811157389302295 0.12263451351039471
-0.2106202565488328 0.11665562151389931 0.11341983732567455 -0.21610862406375506 -0.18086870791395962 -0.4078628546223354 0.060152428218548645 0.2681206918584625
-0.00112072169053135 0.2322321561130226 -0.1474205171223232 0.16274764370679962 0.14515004279150726 0.2198391949780318 -0.2647320555521819 0.07317702497953149
-0.042330760917482585 -0.09018848797058406 0.12348307416571354 0.11500050548757773 -0.03806905839016742 0.04163283090821774 0.25831813508525936 0.058612018902682805
0.14058501569328347 0.12292221291470315 0.2204823591972066 -0.1819520459383545 -0.018379294366169228 0.01296145578294694 -0.08149525952756048 0.2872169899979744
-0.011022675750912184 0.10308301081571057 0.028397681178635767 -0.07625010724365942 -0.08996641285964548 -0.04342900455753294 -0.023374523991881637 0.0545053343212263
-0.08558007356868952 0.043016404055153 0.07750483010841677 -0.272343731766424 0.15555159270061125 0.3166459151869818 -0.4091286708220314 -0.07280390388358444
-0.026238033094306827 0.005367959413307713 -0.051229334349914106 0.15212887462941854 0.14542477284020353 0.0350400999374273 0.2619556564125488 -0.12037476797523994
0.14138893530811014 0.11826569317477073 0.06472662892112314 0.03596462945783794 -0.09835706840840686 -0.14144122035487436 0.18606781303561926 0.07934703852837967
-0.17459857774402163 -0.08182750454971786 0.2916242326533617 -0.18089315718991286 -0.449679323706871 -0.17374758661866194 -0.08350951132552699 -0.231258143051619
0.18483204833596953 0.17368807469499994 -0.07824285771631101 0.03057478363543992 -0.0946649778433073 -0.06099528687195368 0.07592645153140262 -0.14521166105839572
00000000: 8811 0c71 b2f2 a8bf 84f3 4ede 7e83 a53f
00000010: 87f6 e565 9611 9f3f 3e2d 6809 5f70 a03f
00000020: 2e74 fc89 9ae0 ab3f 5838 05d9 c11a d53f
00000030: d9e5 ff3b 9fe0 d1bf 0c42 d554 dc5f c63f
00000040: 1c38 cd54 1f86 9e3f d583 2572 a709 c1bf
00000050: 8b8a ca81 838c cc3f d6c0 d53e 07a8 a4bf
00000060: 5268 c827 8cfb 983f 0ad1 4674 7833 b2bf
00000070: 7fbb ad82 4b9e d53f 1829 0103 5840 c0bf
00000080: 341c c863 a0f9 b23f 4bda 2173 77ba c0bf
00000090: e8fd bde5 a23e bebf 3415 c6ab a815 b93f
000000a0: 5eed 89cd b524 b03f 22b1 f91a d924 953f
000000b0: 8dba ab42 ff9e d6bf ad47 33ec 097b b5bf
000000c0: 5e78 157c d141 cebf 8ffe 1c94 f2a0 bb3f
000000d0: 2f56 d52f 58f7 9d3f 719c 8630 3df7 d73f
000000e0: 484e 33f8 c1ef 753f fabf 9945 76cf b13f
000000f0: 734b d5f3 b0d7 cfbf 8c69 f5dc 3b91 bd3f
00000100: 21a1 f279 1a79 bfbf 79b4 e4c2 07dc 7d3f
00000110: afaf e46e da8f b33f efef c205 8f49 a6bf
00000120: c57e 7bd4 9c42 9cbf 514b 5acd b353 b1bf
00000130: 86b3 8543 edda d3bf 603d ae32 759f c2bf
00000140: 2d79 23a6 7d06 c33f f84f bdc6 59a3 a5bf
00000150: 1fa2 1bcd b303 a03f b159 ebfd a3e5 cf3f
00000160: f723 ac60 49f1 b13f 3959 9238 2a04 c33f
00000170: cc5c 5c7c 7601 b33f 3e9c 6b1c f04a 933f
00000180: ba65 7da9 6530 913f 41b1 dc4c 3696 c1bf
00000190: 597e 3865 ffdb c8bf 9c9a 2817 0dfa 853f
000001a0: ece2 d903 2fce a33f 5e69 276f 4eaf 64bf
000001b0: 813e e876 5e50 b3bf 4825 c749 7011 9f3f
000001c0: 3e65 5473 59ee bb3f 5bf5 76c2 6529 a4bf
000001d0: d1d6 3cd1 b5fc c4bf 89b7 d4aa 72f5 c9bf
000001e0: 0744 0eb6 cd45 61bf 7c22 9750 dfb1 9abf
000001f0: 04dd 188e 82f2 b6bf 58ca 7b7b fd3b a7bf
00000200: 7d34 9eaa 29bb b03f afcb c829 3524 a6bf
00000210: e880 858d f43b d0bf 203b 2709 9a26 9dbf
00000220: 1478 68ee 4062 933f 5116 411c bc03 993f
00000230: 3448 fbc2 7c53 d03f 6a70 d0b9 81cc 813f
00000240: 92bc 2301 1018 cdbf 049e 2fda a5c3 d2bf
00000250: 733f f163 c96b 9dbf 0a40 eca1 8e34 d23f
00000260: d02b 95c0 c35c b53f b3b0 5e53 a8eb ca3f
00000270: ebfa a69b 5ac9 a73f d29a 7ba8 7550 bf3f
00000280: cf88 f12d 3f0a e0bf e5f5 7d25 a80c bebf
00000290: 038a 24da c1dd c13f f993 37af 4641 bbbf
000002a0: f37b 524b c01d b6bf 9acf ffd4 471c 7abf
000002b0: 0d26 8bae d642 b03f 3479 13c2 b502 be3f
000002c0: 71c9 c37c bd9c b33f 7e39 1720 2d21 c03f
000002d0: f37e 2991 388e db3f ab65 c736 0058 cfbf
000002e0: cd4e 56da 6ea9 a93f 907c c5ad ca69 d83f
000002f0: 8630 a60a 6495 993f b2ee b9b6 e572 ccbf
00000300: 3b4f b8da 738d 4c3f 42c4 6ed7 54f5 cabf
00000310: b7b2 32ad 16ae d7bf 6bda 9f72 c491 afbf
00000320: f837 9070 aeba ca3f ef24 5c0c 490b a43f
00000330: e240 b377 8c80 c0bf c72f e58f 471e a7bf
00000340: 9b31 1f98 11b9 d03f 499c 3e78 ea83 c0bf
00000350: 43fc 9f05 b965 c93f f09c 2454 18e2 bc3f
00000360: 528b 7835 ed48 8e3f eb8d 2d94 7052 c9bf
00000370: 34d9 a5c9 aa03 c5bf f689 b290 4e21 c83f
00000380: 19d7 09d3 73b8 babf 3424 0402 354d c63f
00000390: 147b d6d4 9870 b73f b5f8 6451 bf5f c4bf
000003a0: 9d6d 8fa0 4a97 bb3f 7cdf 474d d7ba cebf
000003b0: 84b9 537d 2bf6 ab3f fa57 d1ac 7ad8 bbbf
000003c0: 7e57 7167 171d c0bf 9482 44c9 4de7 c7bf
000003d0: 4aa3 5fac 1dbf c8bf 472d f092 a704 d03f
000003e0: d75a 4ea9 aab9 d63f d438 95cd a91e aa3f
000003f0: ad33 af58 c054 bd3f 9b8c b394 52db cd3f
00000400: a3c6 586b 58bf aa3f 6471 90bb b988 c33f
00000410: a22b d20c 7454 ccbf 941f b2f9 1488 d1bf
00000420: 6779 be38 16ef cdbf 0444 7252 0ee3 d1bf
00000430: 359c 5c28 388a d13f 0add 6c2a 6bbe d3bf
00000440: 0643 e835 1ae3 c13f 9ac8 a8dd 5376 c43f
00000450: d742 945f 4621 a93f cf05 e544 d9ac 70bf
00000460: c403 8a1d 6496 b33f 1a6b 2dfc f0be c93f
00000470: 43b3 df3f 226c abbf b0f5 a4df 7bb9 cd3f
00000480: 49c3 3b2e 31cd 90bf 30f6 2f6f fbe1 6d3f
00000490: 804a 6b97 5ee6 283f 3d79 7cce 16d6 bc3f
000004a0: 9681 8327 2a5b c2bf d154 70cb f587 66bf
000004b0: eb77 e8dc 1f83 ab3f f1a6 ddaa a9a8 d0bf
000004c0: 5288 6c5a 3b78 c13f 1bd0 04c0 243f b83f
000004d0: 4869 00a2 6606 c6bf 987b 636c 9316 b8bf
000004e0: f59b 0740 c267 b8bf eb02 1562 6efa bbbf
000004f0: 24eb ada5 b2ea afbf a535 63df 4941 b43f
00000500: 82fc ecac 33df ce3f 68a5 901a e2dd b53f
00000510: 8942 1b25 56a4 bcbf b852 cace d0b1 b7bf
00000520: 8073 83a8 4a54 b63f 8557 441c 6344 673f
00000530: 3424 8f31 7544 cd3f bd4e 8142 1df5 b73f
00000540: d835 ffc4 2f7c c7bf 1b54 fd39 ff1a c4bf
00000550: d7ca 7bfb 639b b13f 83cd f9eb ee4b d83f
00000560: 9dc7 6d6d 08ae b63f fb84 9ff7 e662 cd3f
00000570: 24b6 55a7 707a cebf fb54 e3b8 f964 bf3f
00000580: 8d4d e0c4 9af5 cabf e9f7 4b8f 24dd bd3f
00000590: a30a 081c 1509 bd3f af62 5e88 72a9 cbbf
000005a0: 1d1c aeb0 b426 c7bf e2ca 76cd 6c1a dabf
000005b0: c682 f28f 4ccc ae3f 6d6e bab0 e328 d13f
000005c0: 155c 8fc0 a55c 52bf 3be1 ca85 c8b9 cd3f
000005d0: 655f e6ed acde c2bf c862 9c2f ead4 c43f
000005e0: 1db9 66cf 4694 c23f 6fa1 67d4 b023 cc3f
000005f0: 9f2a 33b8 5ef1 d0bf b80c 1bc1 babb b23f
00000600: 84c1 82a3 60ac a5bf 6d31 4fbe 9716 b7bf
00000610: 6dba 2635 969c bf3f 9cb5 1752 ac70 bd3f
00000620: f5f1 8ca1 c97d a3bf 89a2 61fe e550 a53f
00000630: dee9 89c9 4888 d03f 58da ad00 6502 ae3f
00000640: 16eb 5a96 b0fe c13f 5eac 6b84 d477 bf3f
00000650: 1c68 0c15 c438 cc3f 466d 5f63 344a c7bf
00000660: 19af e790 05d2 92bf 8009 9225 898b 8a3f
00000670: f42c 7392 dfdc b4bf 2466 b95e c361 d23f
00000680: f5a8 ea7e 0e93 86bf 6f08 3af0 a563 ba3f
00000690: 8c24 c71f 4814 9d3f 0f92 ed84 2085 b3bf
000006a0: f979 f8f0 0908 b7bf 1d7d 8b94 533c a6bf
000006b0: 3736 6bc0 7def 97bf 6203 bc88 1fe8 ab3f
000006c0: 1cb3 2a61 93e8 b5bf b880 3701 3f06 a63f
000006d0: f601 9946 5bd7 b33f d645 4d67 146e d1bf
000006e0: 00b3 be55 1de9 c33f 04f7 883a ed43 d43f
000006f0: 3c57 4205 2a2f dabf c57c 33d2 46a3 b2bf
00000700: bea5 3498 24de 9abf 90c8 05a2 b6fc 753f
00000710: f7e8 4137 bb3a aabf f2c2 a77e f578 c33f
00000720: 5d3e b069 479d c23f d144 8fa6 c6f0 a13f
00000730: b2d2 52a8 e1c3 d03f 489d b77b e1d0 bebf
00000740: 6011 955a 0819 c23f 2ea6 6c14 a946 be3f
00000750: 6984 65a2 ec91 b03f 9d18 abb6 f469 a23f
00000760: b800 25c8 ed2d b9bf 8381 ddf3 be1a c2bf
00000770: d0c1 e9f1 11d1 c73f 318b 8367 1650 b43f
00000780: 135a ab06 3f59 c6bf ef4e f4b7 a5f2 b4bf
00000790: fae7 7daf f8a9 d23f e1b5 19c9 8127 c7bf
000007a0: c489 40c9 8bc7 dcbf 479e 2465 5c3d c6bf
000007b0: f94e 0c1c e160 b5bf 0192 abe8 dd99 cdbf
000007c0: ef86 6d99 93a8 c73f e596 422c 693b c63f
000007d0: d081 0953 b907 b4bf 319b 2fff fe4e 9f3f
000007e0: b0df e9c7 f63b b8bf e37d a634 c63a afbf
000007f0: 4e8c 3a7a ea6f b33f ce2f 9fb3 4b96 c2bf

b1 f8 [1, 128]
0.0003584217251981119 0.000879010212524345 5.744358660616858e-07 -7.535146761187915e-05 0.004708729534989443 0.0007302217352411115 -0.002355047678962923 -0.002977918699644684
-0.00189153401676975 -0.0017400793759878028 -0.004300790971185991 -0.0037061124177901346 -0.006610822213135438 7.621048856938072e-08 -0.003167614348337281 0.0027083678762965433
0.0013960842515208134 -0.00044537652631475424 -0.0028508697401214665 0.00023136126038200445 -0.0004880547484090652 -0.0020045095115226027 -0.004369863142440019 -0.0035017184659656424
0.0019109053191582082 0.005994194396532883 0.0004920484344411219 0.0018561126195082336 0.00044337551051089785 0.000944038278540231 -0.0004396974029972069 0.00015848194778538232
-0.0010775844667289002 -0.0009311220533862598 0.0013545537374441293 0.0003677404591300168 0.0019473986711715876 -0.0005457228985947018 0.0009477006587709907 -0.0004442541657981386
0.0026504863684446824 2.3563762016831392e-06 0.0001471801047417801 0.00044419976124057475 0.003653455317219549 -0.0002519121443850079 -0.0029934379476671334 -3.673395261112371e-05
0.0005076192919755867 -0.0014570177849006982 -0.001803011831935295 -0.00013482639299037936 0.0006164780471296538 -0.0036682124423738634 -0.0016155428628976186 0.002959856912621748
0.003582728044744206 0.002879040927548871 -0.0015818924128124935 -0.0021386607694177007 -9.16552437202986e-05 0.000606608457022688 -0.0048479796130317795 0.001696729200851095
0.0013074246680367945 -0.002489836065915969 -1.800862504270349e-05 -0.004912708110045731 0.00030505899426348776 0.0008644316157777097 -0.010094147137905428 0.0034713776435580314
8.527976973312718e-05 0.0006070758979168201 0.00011851121589302534 0.0018865319368095786 7.449451377125366e-05 0.001910303932430123 0.0027931213055641933 -0.0022844818702227503
-0.002459744927385129 0.00024331115402943755 -0.0021679553465838632 0.0015524602409729635 5.601903684070098e-06 -0.0003230018038624821 -0.0009792893092866687 0.00274786543586917
0.0005486219728842168 0.0040033909768287185 -0.0004420024824671996 -0.0006679802241490419 -0.0005651518358298208 0.0016498979715993684 0.008776256844706466 -0.003955568757292199
0.0012152971885842807 -0.00039605282180284337 -0.004070888971878842 0.0051644394510624745 -0.00015499146071013922 0.001605547443167604 -0.0010943598668242908 0.0017175492367658219
-0.0005642872984466667 0.00020481930199081662 -0.000368039436702325 0.0001530840661849747 0.003168986758198521 -4.673093378130843e-06 -0.0018185474990374771 8.407516794172533e-05
-0.0018786904448653938 -0.0004672219173932013 0.001535927257548655 1.8921678502582216e-09 -0.002700661897249084 -0.003999443128015228 -0.005361412644837803 -0.0007139859924095468
0.0015792778904608837 -7.049674110327937e-05 0.0008339146656217833 0.00042113063410245796 0.003715099018599503 -0.004062011148986619 0.00017125943908149487 -0.0007744310280860212
00000000: 50bb 8096 517d 373f 015c cd0e accd 4c3f
00000010: 3cff 0ad4 5d46 a33e 74ab 3c5b c0c0 13bf
00000020: e85e bcf5 7549 733f a74d 603c 8bed 473f
00000030: 5892 5f98 e44a 63bf dd96 9aed 2565 68bf
00000040: 746b 712f abfd 5ebf 04b7 c900 6c82 5cbf
00000050: 9f3f 17c9 b49d 71bf a391 26f4 475c 6ebf
00000060: 5b09 4813 f313 7bbf bc3b ec17 2575 743e
00000070: 6ed2 0901 f8f2 69bf ab0e 89ee db2f 663f
00000080: d0bb f90c 9adf 563f 17eb 6b9d 2d30 3dbf
00000090: b839 9109 b55a 67bf a28b 0318 3253 2e3f
000000a0: 7af7 dd2e 33fc 3fbf 9e03 7dd9 c26b 60bf
000000b0: ef70 8e34 22e6 71bf 81de 50c9 a2af 6cbf
000000c0: d294 7ff6 ea4e 5f3f cf33 624e 5e8d 783f
000000d0: 2e6a 8cf7 991f 403f d31b e7bf 1969 5e3f
000000e0: 5421 4751 9b0e 3d3f 270a 29c4 2aef 4e3f
000000f0: ef5f 4cf7 e5d0 3cbf 58e6 c390 c5c5 243f
00000100: 0a12 c582 b7a7 51bf 7cd6 4962 d182 4ebf
00000110: c61a 3100 6931 563f fb2f d13e a919 383f
00000120: a598 b766 fbe7 5f3f 2b35 4600 dbe1 41bf
00000130: 751e fcaa e30d 4f3f 9aa4 fb1c 591d 3dbf
00000140: 1abc ab08 79b6 653f 56c2 3e84 47c4 c33e
00000150: ceed 1479 8b4a 233f da11 8a72 6f1c 3d3f
00000160: 70f9 5ae3 d9ed 6d3f c9e6 ed6b 6282 30bf
00000170: cf8c cfc2 b185 68bf aea6 3d00 5942 03bf
00000180: 9e5a 0121 38a2 403f e1fb 17ef 2cdf 57bf
00000190: 8fc1 8e36 618a 5dbf c7e5 a5e5 05ac 21bf
000001a0: 9939 8b86 6433 443f 7f5d 318f cc0c 6ebf
000001b0: 1e4b bbf0 1378 5abf 9562 7f14 453f 683f
000001c0: aa5f 0b79 8659 6d3f 01db 1554 c995 673f
000001d0: 3eca 710b f0ea 59bf e9fa fac1 1885 61bf
000001e0: 7b52 de18 e106 18bf 5b79 00be 99e0 433f
000001f0: affd 3b9e 79db 73bf 8676 611b 99cc 5b3f
00000200: 02a6 3c8c bc6b 553f 8f61 378f 9065 64bf
00000210: 40c6 274a 27e2 f2be f8d5 ad0a 591f 74bf
00000220: fdb0 5967 0afe 333f 277e 7bc2 6053 4c3f
00000230: ecde b47e 3dac 84bf 71cc 6fae 0170 6c3f
00000240: 9c16 be49 075b 163f 67de 5990 85e4 433f
00000250: 6ac3 952f 2711 1f3f a258 2c3e b0e8 5e3f
00000260: 5057 6300 3e87 133f c8c2 923a 654c 5f3f
00000270: fd36 2895 99e1 663f aa1b 78dd e7b6 62bf
00000280: 45bc a080 7526 64bf eec1 0be6 2ae4 2f3f
00000290: ec2d 022a 88c2 61bf 6505 a77d 7d6f 593f
000002a0: f292 408f ff7e d73e 29b1 232f 122b 35bf
000002b0: 681d a1e3 6f0b 50bf 52a9 c905 b182 663f
000002c0: 0045 38b7 2cfa 413f 39e8 1815 dc65 703f
000002d0: d481 fa34 92f7 3cbf e2c3 c99b 6ce3 45bf
000002e0: 7617 7a53 d684 42bf 03b9 1a75 2c08 5b3f
000002f0: e7d3 0841 49f9 813f 86c3 31e7 b633 70bf
00000300: 5052 836b 53e9 533f 1a25 c9ea a9f4 39bf
00000310: 3774 ffef a2ac 70bf 7336 b6a8 4e27 753f
00000320: 5779 8382 a650 24bf 195d ad70 274e 5a3f
00000330: 68dc a2f5 13ee 51bf 2484 4673 ec23 5c3f
00000340: 7f32 06bf 957d 42bf 0f84 4368 98d8 2a3f
00000350: cf63 2258 ad1e 38bf 6660 981d a610 243f
00000360: ca09 9dcf d8f5 693f 9fab 7120 b299 d3be
00000370: ebb2 3682 8acb 5dbf d45d 0963 300a 163f
00000380: 32c1 4781 ccc7 5ebf 9af5 ecda ae9e 3ebf
00000390: 3ef1 c555 252a 593f df6d 9ccd eb40 203e
000003a0: 58f1 d6d0 b21f 66bf df1a fe56 b861 70bf
000003b0: ffde 843f d9f5 75bf 1c9b 5c3e 5965 47bf
000003c0: 6548 03b9 f8df 593f 0de4 40ca f47a 12bf
000003d0: 7148 b61b 6253 4b3f 1622 024d 6699 3b3f
000003e0: 6f42 2999 206f 6e3f f076 a7d0 53a3 70bf
000003f0: 37e3 4561 8372 263f d742 25f8 6560 49bf

w2 f8 [128, 10]
0.025514334883388383 -0.1901467288278067 -0.013345333438746002 -0.010511846150880131 -0.0676378360784037 0.19455359308128847 -0.09133769116606866 0.17847910127715466
-0.22865814114960603 -0.04695926364961862 -0.17110403786019238 -0.08540960926667943 0.06475187312587062 -0.11765930082568671 0.053163276401260444 0.4125614678163368
0.2160803508363664 0.019692520825840526 0.37605637415531284 -0.29077666936027324 -0.08361940427178799 0.0034566838317427553 -0.057367021402793456 -0.09576351728497355
-0.18606559783715615 0.04918374869325751 -0.06530810078647444 0.263023845038094 -0.1436539501485291 -0.1706810760365417 -0.21531109997705508 0.6264991961656695
-0.008836199899413184 -0.33015688311325603 0.3661763171716934 0.047322197446441394 0.2577104882941491 0.1916310518531389 -0.743032114153679 -0.14613916231979515
0.3306544877567075 0.2567239725373389 0.1668620808024788 0.27459051973436865 0.08372458807056524 -0.04122547248183744 -0.029031301418461306 0.18367996504899034
-0.40239749072452363 0.030249940980695784 0.4795941693620402 -0.27978933479526485 -0.2511906580323263 0.2990926062124234 -0.15995005843439383 -0.09757938066711179
0.2945225505839243 -0.04772422448937889 -0.5419879937796969 -0.3306125271066492 0.039452559432797324 0.009631802163218258 0.10269501147948841 0.17232247964784092
0.07372827867593466 -0.15054204366000917 0.10979565227468825 0.032860160903025834 0.1130585656141509 -0.2896424751969226 -0.4225900526949762 0.052440237121984166
-0.17085098939511434 -0.05986062928251074 0.0765758255853502 0.013309929300528822 0.18073579844569546 0.3084546515651326 0.005350979751413637 0.39153748404265437
-0.08185193288272384 0.24072584042245065 -0.20333598534015326 0.08479841518657914 -0.010715571671498149 0.04085717689830151 -0.17518700326336645 0.06043497551663623
0.21312491192951513 -0.010912823165536826 -0.08544146633430594 -0.05876588223149581 0.1581276787528169 -0.27085764776012333 -0.01821814861745457 -0.011762240881112083
0.0436602393346668 0.13754696685487416 -0.1195802928359179 0.44560071976022986 -0.31969108426237636 0.40304352102589636 -0.12201193035373396 0.11623567164201372
0.24379182063274005 -0.1011770338396897 -0.32423339296558595 0.41409520109613723 -0.40145723025763413 -0.4055074582383353 0.09954056956325573 -0.03425761936940412
-0.047656536994365783 -0.00884151545292547 0.0398228530869587 0.08591561885669742 0.0887941424183307 -0.22533031494694686 0.060826523140925175 -0.032380431248557384
-0.266718474047387 0.5056932380352648 0.38541587385823034 -0.28335044055657505 0.27741326876345584 -0.1905185745707222 -0.17004896956402 0.06419406958247179
-0.19869336831058063 -0.032873136459483296 0.22050413688437465 -0.07692012123730953 -0.022376037316310632 0.12338359054236757 -0.14117022921963163 0.0027843063945030937
-0.027482651076596205 9.524293403192573e-05 0.09551213829291776 -0.11890346712820148 -0.10833325276142751 -0.10273950799015841 0.0072350541354902105 -0.4318737873851432
-0.09961493906612302 0.3303159891209658 -0.10960765774592598 -0.01786360799510779 -0.11857926979681198 0.3598075175265197 0.34323584512728195 -0.23154644501479343
-0.26167776918763097 -0.006723000588753769 -0.021395265972098433 0.10200462358690823 0.24255723374210597 -0.20318938877497894 -0.19292582911551218 0.2986387971047473
-0.31731941270826713 0.5146079806916575 0.49350766261508805 0.3679858511508295 -0.09423431709534434 0.3639168969307153 -0.39781073000177036 0.10485337645034493
-0.4404982820179541 -0.3723122437922861 0.0297137184222197 0.10626965383664283 -0.10674183197305118 -0.012003562294518114 -0.0861087640466025 0.22691626125501638
0.02320287980117048 0.0642248833490023 0.057681036527747365 -0.01323745588738926 0.07662984748846884 -0.21010643030453005 -0.04303805423645798 0.051884796399337754
-0.09005936828346699 -0.05865859834260926 0.35876108337557183 -0.19369277102164564 0.18602513882670096 0.0059688705588973575 -0.07653972428770921 -0.13313930570849938
0.13048180051589364 0.07572171380095545 -0.37838892007367 0.04957344286483169 0.1616631055064678 0.2801424550072576 0.061071092783138235 -0.07551180106600419
0.18092663681172708 -0.096417250890334 0.04348936053584176 0.24016884203499925 0.6252056439749417 -0.2910175944438697 -0.24178142114150764 -0.07666680052289981
-0.26481209095732144 -0.10413253729726128 -0.24396056522627196 -0.3354736851275865 -0.04062011267733128 -0.07575437396198528 0.1290193296438749 -0.08685480174426993
-0.05252645337507503 -0.04301399286248443 -0.09647879640301557 -0.016201886297468417 -0.07394849753214888 -0.08451143442324703 0.5757365064279326 0.32818638636705666
-0.1321366742772304 0.06812405633605378 -0.09874421441541574 -0.0893338488765663 -0.3275034004519921 0.18275388938456688 -0.2903007206035711 -0.33466815680438194
0.06242968104881486 0.30799777376663656 -0.21035705747092528 0.36917809804499774 -0.20469209306485583 0.35522731271383184 0.011871066166692298 -0.02039840844567687
0.4048372973762245 -0.44440807868921794 -0.02337826003950104 0.1567387986322808 0.23595227839134694 -0.05009785258313045 0.40508096060127785 0.11934769514769837
-0.15221269905726642 -0.15605541387640978 -0.35442101266084913 0.06257260365615436 0.1233702455940382 0.31872491618571586 -0.25583393931076254 0.24814600100843542
00000000: 7e06 9d07 6e20 9a3f 28df e05e ba56 c8bf
00000010: c297 6355 cc54 8bbf df47 821b 3c87 85bf
00000020: dacf ed95 b650 b1bf 0f3d cdd3 21e7 c83f
00000030: 444e 732c e861 b7bf f69e 8037 67d8 c63f
00000040: a0d1 1983 ab44 cdbf e91b 3d6b 0b0b a8bf
00000050: 6d5a 69b3 bce6 c5bf d284 9076 67dd b5bf
00000060: c92b 6e29 9493 b03f 3cd6 1d81 eb1e bebf
00000070: e7b5 fb8a 3738 ab3f 5d19 f736 6867 da3f
00000080: 4e40 135c 85a8 cb3f 48ee b0b3 462a 943f
00000090: 1bc3 1cc1 4e11 d83f 42e6 55bf 159c d2bf
000000a0: 7488 a8ce 1468 b5bf 957c 5100 3151 6c3f
000000b0: fc7d 96d1 355f adbf 6f8e e336 f583 b8bf
000000c0: e885 cf5c ffd0 c7bf d5b2 43c0 9c2e a93f
000000d0: 11b2 0a1d 08b8 b0bf 2d6f 20f7 61d5 d03f
000000e0: 7c21 eaac 4063 c2bf a4bf cfa3 e0d8 c5bf
000000f0: a701 6f6a 508f cbbf 110f d00a 480c e43f
00000100: 3710 b6ac b618 82bf a153 e155 4a21 d5bf
00000110: 0c9e b4ca 6e6f d73f 508c d074 9d3a a83f
00000120: dacf c321 547e d03f 64bc 4dc6 5d87 c83f
00000130: 895e c548 ebc6 e7bf 8f07 6a25 b0b4 c2bf
00000140: 4934 cc70 7129 d53f a469 8962 2a6e d03f
00000150: a99c fe95 bc5b c53f 963f 831d e492 d13f
00000160: 9e57 a27f f96e b53f f7ad 2450 811b a5bf
00000170: b945 9ca8 61ba 9dbf 556d 6839 d382 c73f
00000180: eddf a967 e1c0 d9bf 4240 df2c d7f9 9e3f
00000190: abc8 30be abb1 de3f c7c6 ad86 11e8 d1bf
000001a0: dacf 53fb 8113 d0bf d218 8a50 5524 d33f
000001b0: 8908 fc56 3e79 c4bf 87ab ba58 f6fa b8bf
000001c0: 4651 ac1c 75d9 d23f 1554 d13e 4f6f a8bf
000001d0: 6b78 8334 f757 e1bf cd8a e471 c128 d5bf
000001e0: ccc4 0339 2033 a43f 0b2c 579a d6b9 833f
000001f0: 8d49 c463 384a ba3f 42ff 39bb a90e c63f
00000200: 7719 b441 dbdf b23f d2ab 1831 f644 c3bf
00000210: 2945 c35f 911b bc3f 36ef d608 0cd3 a03f
00000220: 4c6f d8f9 67f1 bc3f a335 a097 8089 d2bf
00000230: 5426 fc25 b70b dbbf 8be7 dd5e 72d9 aa3f
00000240: 2c7b f8f9 71de c5bf d937 2c6a 0da6 aebf
00000250: b4a3 8d2a 799a b33f a076 7678 3c42 8b3f
00000260: f935 c5c3 5922 c73f 4d5d 3194 b8bd d33f
00000270: 86c5 8ab0 e8ea 753f bfc3 473c f30e d93f
00000280: df7e d88e 3ff4 b4bf 3251 f5b5 1ad0 ce3f
00000290: f764 91df e906 cabf e79e fa53 59b5 b53f
000002a0: 74a2 18af 0bf2 85bf 2491 2b5d 3beb a43f
000002b0: d8a6 d918 876c c6bf 7fcc c146 55f1 ae3f
000002c0: 719e 5957 ad47 cb3f e2f7 d254 7659 86bf
000002d0: 10cd a0ef 7ddf b5bf df16 9ccc 8f16 aebf
000002e0: 9ef9 6a1c 873d c43f f213 c050 bb55 d1bf
000002f0: 2ec5 0542 c7a7 92bf 32e1 4b3f cd16 88bf
00000300: 02e6 2788 a25a a63f 8a20 2796 239b c13f
00000310: 6af3 f966 d09c bebf 906e 9ce1 b884 dc3f
00000320: 30b3 ee97 d175 d4bf 3ef0 6a0d 77cb d93f
00000330: 7353 9782 2c3c bfbf 45bf 54f8 9ec1 bd3f
00000340: 7730 5304 9234 cf3f ea9f 72f3 bce6 b9bf
00000350: 52bb c36a 3dc0 d4bf 69dc 8828 8980 da3f
00000360: 02c1 acaa 79b1 d9bf 2fbc da8d d5f3 d9bf
00000370: d73e e6a2 7d7b b93f 162b a9f5 368a a1bf
00000380: 40af a907 7066 a8bf d038 bd1d 801b 82bf
00000390: 27a7 4837 a963 a43f 8182 34e5 90fe b53f
000003a0: 4e5a c381 36bb b63f 534c bfae 9fd7 ccbf
000003b0: 2f44 3d6f a724 af3f 6061 7cfa 2a94 a0bf
000003c0: 7e71 d15c ea11 d1bf 0c6f e595 a32e e03f
000003d0: a124 6557 a7aa d83f 05da dfe2 6922 d2bf
000003e0: 2c31 3495 23c1 d13f b4e8 87a3 e962 c8bf
000003f0: ca7b 7f25 2ac4 c5bf 7a30 74c5 056f b03f
00000400: 3dbb 69c7 c86e c9bf 8e56 056c bfd4 a0bf
00000410: 548a 46c4 7a39 cc3f 895c 1e7d 09b1 b3bf
00000420: 3855 f371 bee9 96bf 0716 3e26 1196 bf3f
00000430: e464 d5b6 dd11 c2bf d882 011d 1dcf 663f
00000440: 0250 537e 6924 9cbf 9ff6 b925 a5f7 183f
00000450: fbcf 56c6 7b73 b83f c356 b226 7570 bebf
00000460: 6bfc ad61 babb bbbf 182a d3ea 224d babf
00000470: 14f7 580e 81a2 7d3f ff67 34f4 d1a3 dbbf
00000480: 6566 7b59 5d80 b9bf 4ab5 a7ac e523 d53f
00000490: 12f0 6859 3f0f bcbf 049d 8270 d64a 92bf
000004a0: 3fc8 c205 365b bebf 0568 281c 1607 d73f
000004b0: 01be 687a 93f7 d53f 16fb 6b5c 50a3 cdbf
000004c0: 3612 301d 54bf d0bf 1913 8eba 9389 7bbf
000004d0: caba 8efe a3e8 95bf 3ab8 589a f91c ba3f
000004e0: 3650 2a8d 1d0c cf3f d064 d721 1c02 cabf
000004f0: 656a 4d27 cbb1 c8bf 446d b8e6 e51c d33f
00000500: a2f2 fd14 f64e d4bf c099 ea27 ab77 e03f
00000510: 0c76 d029 a195 df3f aa58 0587 148d d73f
00000520: 9fdc 157e bd1f b8bf d2de b118 6a4a d73f
00000530: 58c0 d622 bb75 d9bf 7cba babe abd7 ba3f
00000540: e785 cdb4 1f31 dcbf 743f bfbb f6d3 d7bf
00000550: 1fc5 76e3 456d 9e3f 841e c9ef 7c34 bb3f
00000560: 567b 70c5 6e53 bbbf 2873 ecdb 5295 88bf
00000570: d0a8 7a55 390b b6bf 6fac 8290 970b cd3f
00000580: 721a ade7 7ec2 973f 05c9 92bd 0a71 b03f
00000590: 60dc f86a 5e88 ad3f d3d9 f240 3d1c 8bbf
000005a0: e345 dc80 039e b33f 552b 6b7b c4e4 cabf
000005b0: ebad db76 1509 a6bf 72b9 63df a490 aa3f
000005c0: 43d5 7979 210e b7bf 557b 05f3 7f08 aebf
000005d0: 333d 0b0c f1f5 d63f 113a 81ba ecca c8bf
000005e0: 1a4d bff7 abcf c73f dd28 837d d072 783f
000005f0: fb1a a97c 1b98 b3bf 6342 ea71 b50a c1bf
00000600: d02f f8ac a0b3 c03f e546 5f8c 7f62 b33f
00000610: a2a6 3829 8637 d8bf 128b b5b7 b061 a93f
00000620: ad5e 8f6b 60b1 c43f 758c 9e9e daed d13f
00000630: 4b18 78d4 b544 af3f 3861 0acc bd54 b3bf
00000640: 1973 0aa2 9a28 c73f 3d1e 580b cdae b8bf
00000650: c366 73ca 3c44 a63f 517d 0745 dabd ce3f
00000660: 2db4 4444 af01 e43f d79b ac42 08a0 d2bf
00000670: 96a5 4a90 b1f2 cebf bc4f ef78 6fa0 b3bf
00000680: 0bd0 8f69 aef2 d0bf 2328 2412 6ea8 babf
00000690: b08b 948c 193a cfbf 57a9 929e 6678 d5bf
000006a0: 1798 04cf 28cc a4bf 2218 b27e a364 b3bf
000006b0: 12a7 af94 b483 c03f 0601 fec4 1d3c b6bf
000006c0: 3475 d74e bfe4 aabf 42c0 3a19 ee05 a6bf
000006d0: eef2 4e9b d5b2 b8bf 7ae2 1f2f 3a97 90bf
000006e0: 9c29 7dea 49ee b2bf 9763 fc96 8aa2 b5bf
000006f0: 9914 47f7 6e6c e23f 6817 1c79 0101 d53f
00000700: 7bbb 4fc3 dae9 c0bf 28c2 0802 9470 b13f
00000710: 2b5b 9503 4d47 b9bf c3c4 5947 95de b6bf
00000720: 4849 91d2 d0f5 d4bf 62cf 0fbd 7a64 c73f
00000730: 35d8 3f79 4994 d2bf e531 1ffd 336b d5bf
00000740: b109 cf7c c8f6 af3f 7b62 644b 3cb6 d33f
00000750: 6903 29e5 faec cabf 012d 602c 9da0 d73f
00000760: dd4e bbba 5933 cabf af1e b056 0bbc d63f
00000770: f802 a387 db4f 883f 6295 a804 52e3 94bf
00000780: 6da4 1bb2 dae8 d93f c018 0395 2e71 dcbf
00000790: dc68 3a79 78f0 97bf b8ea 1157 0410 c43f
000007a0: 4dc3 8d2b af33 ce3f 0b85 e3fc 6ca6 a9bf
000007b0: b6f1 80b1 d8ec d93f df28 830f 928d be3f
000007c0: 1451 3eaa b47b c3bf 1d41 7bb1 9ff9 c3bf
000007d0: e82f 9978 d5ae d6bf 2829 5416 c204 b03f
000007e0: d039 2042 3195 bf3f 0a08 dc30 fd65 d43f
000007f0: 11fb a250 955f d0bf e471 7b87 3fc3 cf3f

b2 f8 [1, 10]
-0.022064924698304535 -0.02190414471379663 0.040027669875413965 0.027238088113074252 0.033772713756696375 -0.007368680904417516 -0.007496440430199136 -0.01366665128913553
-0.03668696645797642 0.008149336748645812
00000000: 9726 df07 3098 96bf fb3a c544 0a6e 96bf
00000010: f297 19ba 817e a43f 7cd9 9a26 4de4 9b3f
00000020: 8713 2a3a a84a a13f d172 fc37 9f2e 7ebf
00000030: f3f1 be67 96b4 7ebf a450 a9e2 42fd 8bbf
00000040: 10bf 4052 a2c8 a2bf fc62 8e76 99b0 803f
