MachineLearinigFromScratch/model.npz (npz, 15326 bytes, 4 tensors)

w1 f8 [10, 128]
00000000: 93dc e184 9d98 e7bf 70c9 d615 9a1b e7bf
00000010: 43ca e1a7 7c2c a0bf be9c 174a a6b1 e0bf
00000020: 9cab 0515 779b e23f 4c08 8aaa 096f e8bf
00000030: 5c72 4f5b 0782 dabf 2093 b0e1 0f7e de3f
00000040: c566 435f 7d8e c83f 6cca 2e44 d11e d2bf
00000050: 16a2 e29e c610 c3bf 5b03 7315 bf07 9c3f
00000060: f1c0 c8ad 84e8 d6bf 2f76 2c22 8b81 cebf
00000070: a787 279f b7e6 bdbf 4e04 eab9 0376 e63f
00000080: 3e2d 9d15 9b06 b83f c857 3230 086f 95bf
00000090: 2d5d 9f7a 054b d73f 12a3 7b71 3068 c13f
000000a0: 32af 24bd b5cb e73f 795e 5beb 7e3f b8bf
000000b0: 0fc4 d797 1363 e6bf e3da b891 b3b1 c1bf
000000c0: f3ea 7b61 90bf d93f 1e38 a999 9732 dbbf
000000d0: eecb fea7 1dee b73f 8f3d 0a43 9012 c9bf
000000e0: d25e b9b3 f0d8 d9bf 80fd bc48 07de f03f
000000f0: 7397 e320 dae0 9bbf 79e0 df86 0e19 f43f
00000100: 6fa1 89bf ae0f dd3f 1bb9 75e6 bb15 e13f
00000110: 6319 6280 1265 cdbf cb9c 79cd 736c e8bf
00000120: 6960 72ac 8501 c53f 076a 0ef5 221b e0bf
00000130: dc4e cb69 2f69 96bf 711f bb26 e252 cdbf
00000140: 4b5d 179f 7080 d6bf b38c 0489 83a3 e6bf
00000150: bca3 02f3 57a9 e3bf 964f 09ad efc6 a2bf
00000160: 0078 c73b b321 f1bf d022 0afd bafe f53f
00000170: 9884 477d c62e ef3f 2570 0efd 8d60 b2bf
00000180: 9274 b1ca c2a3 c13f cacd 94da f1ce e03f
00000190: 3782 4a2a caeb c53f 53ab 0066 f4bc e2bf
000001a0: 98c3 80e7 97ef d3bf 5576 ed16 4a48 e8bf
000001b0: bd85 15bc 3072 da3f 7225 a8fb 2186 eabf
000001c0: fbc4 60b6 ea0f c93f 0df2 086b 09aa f13f
000001d0: f79d 35b2 39e4 da3f e73d 49d5 71af ef3f
000001e0: 3533 c580 ab8f eebf 7f67 b7a4 75f7 e5bf
000001f0: 44c6 6b03 e7b6 a3bf 1f0d c7e2 bdba c4bf
00000200: b7a3 9be4 7661 e43f 876b 3f08 59ad dabf
00000210: 83e9 62da 4512 cebf c440 5e3f b9b6 c63f
00000220: 1dc9 d673 1b71 d3bf cb87 e130 f53c e6bf
00000230: 1fcf ca91 c7dd c4bf 55f6 ea4e 726f e3bf
00000240: 9ef9 3d15 a7c3 c2bf 1faf d0aa 5530 ab3f
00000250: 585d cce9 af68 e9bf f3e3 e2c2 3b54 c7bf
00000260: d609 f38a f866 ed3f 2f44 6536 825f e0bf
00000270: 8b15 f81a 4e9a e4bf 1e1f b116 171b bcbf
00000280: e1d9 3dc0 f291 e63f c4d3 8f96 2daf 943f
00000290: 9aed f746 3a86 e0bf 6095 2335 2976 c33f
000002a0: ba49 49f4 e54e e03f d407 e275 0e0c e2bf
000002b0: 9969 17b6 23eb f2bf 80d9 29f2 4fb5 f4bf
000002c0: fc8f 43f9 a881 f3bf 7d7c 4d4f 467a 933f
000002d0: 99da dfeb 540e db3f 1eb8 33ec a478 e5bf
000002e0: e43f 3ce4 2991 d23f b442 8b9c e694 babf
000002f0: 2e1e fb11 7fd4 eabf 3edc 3a7d f7a0 eabf
00000300: 610b 9e0c 40b4 eabf c58b 592a 2943 f33f
00000310: e99c 9ccf a2f2 ecbf a11e 718c 015f f1bf
00000320: d01b 9c6c cb34 be3f 0514 6e68 60be d23f
00000330: fc58 eec7 1a67 b03f b889 c7aa 6bc7 f23f
00000340: f81e a04b 8971 ed3f 264c e742 841b e5bf
00000350: c512 eaa1 2375 c33f 4ab9 48d2 d0f0 dd3f
00000360: 5425 53fa 7954 e23f ba75 9bfe 348d c83f
00000370: d07d c565 f69b e23f 7b86 64b9 6edd e2bf
00000380: 04bc 36bd 4ca6 e63f be13 4a59 6ffd e83f
00000390: b006 e2b7 b6db d2bf ac31 ceef e873 e0bf
000003a0: d93a dcee 3cd3 e33f a31c 0b8c ae90 efbf
000003b0: 2bd1 467c 9a74 d7bf 6943 af87 3fb5 e1bf
000003c0: 3fee f0e8 1c85 d9bf b9c4 e483 8f12 c63f
000003d0: 76df b76c 5219 b3bf 9189 058f 62fe ec3f
000003e0: 72c9 b517 81db e53f b627 308b ade5 dabf
000003f0: 8196 f4ec e610 df3f 3ba2 b38a f4ef e33f
00000400: 4740 f1dd 9653 d63f 9f9b 8adb 467b a13f
00000410: 3c1b 473e 9906 d4bf cd9c 3f88 623b e83f
00000420: 885a 9b5e 6f2f f0bf e23d 42be d6d3 c2bf
00000430: 4318 747f 7a84 f33f 783f 25f5 bdce c23f
00000440: b9c1 6b71 e077 f13f 5ff9 3123 da2d da3f
00000450: 0d40 1c7e 6a9d efbf 9f3a 2b7e d5f3 ebbf
00000460: a97d 38cc c405 cd3f 7732 ce82 2cfc d23f
00000470: d485 76c1 157f e33f fede c84d a46e c63f
00000480: 2687 3cc8 ff8e adbf c05a 1a7f 5f51 f7bf
00000490: 45ef 7b84 041a cdbf 98c2 9826 a7b4 a73f
000004a0: 646b 104d 0a9d dc3f 2775 0188 4755 de3f
000004b0: 0f51 b3c5 eb4d e3bf da91 d65d ab3a b13f
000004c0: 33b6 24d5 0d31 e4bf 6294 2d7a 14ae c03f
000004d0: b784 5a4f 446a d73f 0a79 f72c 8ce6 eabf
000004e0: 2157 d4d1 0615 bc3f bc31 8493 7aab b9bf
000004f0: ab8c b8ee 94da f13f 7893 a49e 15ee f0bf
00000500: 2871 52c0 825f e6bf 3912 bd0b 1614 dbbf
00000510: 5b04 9982 9222 c03f 7cdf bd40 342e d13f
00000520: 7f91 25ef 90f9 a3bf fc87 7de6 ee0e dbbf
00000530: aabc 6496 673f c8bf 5cd3 6ebf cecb b53f
00000540: 6374 3c0f 95e2 d63f 1aa0 548d 862d e53f
00000550: c2f7 5929 0384 e4bf 0f43 2f2d fb19 b73f
00000560: 49c6 4d73 b261 de3f 0456 360c 69d0 8c3f
00000570: afe6 eee1 af77 d2bf 416f 9cc7 a601 a93f
00000580: ba6e 88e3 93bc e03f 0343 4ad2 7cef d1bf
00000590: 6eae af5f aa34 d3bf ac05 b58f 53b9 cf3f
000005a0: b1ec c7d5 21c4 ea3f 079f f228 0645 fabf
000005b0: cc0c 3ace 550a e1bf e1f8 fe69 62fe 863f
000005c0: 7d7f f512 92de d13f c64d e46f 1bf2 c13f
000005d0: 7c80 d44e 473c c2bf 04ae e2e3 c002 f53f
000005e0: b725 c5bf 582f c3bf 823f e7c3 a3a0 e3bf
000005f0: c14b decb 9238 e33f 5aee d739 7288 c3bf
00000600: 260f 660e 5e23 f13f dce9 86f6 7b2e b53f
00000610: 2b60 5b8e 6c0d f23f 4c33 f0ff a70a e53f
00000620: b88a fd75 e32c d03f bb1c 131d adf0 e1bf
00000630: 0057 74cc 2bd3 f0bf e354 8be2 a83a f5bf
00000640: d00c 5a0d 3ae3 e6bf 1c95 646b 9f12 c13f
00000650: 1077 9b30 63fd 9bbf 5650 ac14 d15f be3f
00000660: 0183 6772 be89 813f e1c9 e555 cd0b bc3f
00000670: ce90 33c4 c1aa d1bf d28c 713b c7b7 f5bf
00000680: b9e0 c2a0 f0b2 ab3f 45a6 569d 5e93 913f
00000690: 44b9 17d9 a8e1 c53f fcde 1d59 e27a c23f
000006a0: 14b9 2d85 7d4d e43f 6d5b d91a 9361 b63f
000006b0: 6be6 dff1 3c20 d2bf c51a a686 04ba dcbf
000006c0: 0582 0c2c 6d0e e6bf ae4f 1df8 13cd ce3f
000006d0: e6c9 fd66 ad8d e4bf 9f95 eeae d275 e73f
000006e0: a52f 73b7 cee4 debf ee1c 33d1 b048 e63f
000006f0: f95d 7a51 0176 e3bf c839 604e 6366 db3f
00000700: b3fb b218 d7a0 b9bf bdf7 683b 4edc e53f
00000710: 7579 ae65 06e1 e0bf e3d8 fe29 49e5 c7bf
00000720: da6b 970a cf19 e13f 7de3 612a 4337 ea3f
00000730: d475 c9e3 9c7f c3bf 766d f8b8 ecae de3f
00000740: 869e c6d8 e644 d83f d398 35d6 5504 eb3f
00000750: 0d8e 0e8c c58e 883f 37e6 52a0 22cf d8bf
00000760: 7635 dc20 5999 c0bf 348b c4d6 69e4 c53f
00000770: 9390 5dfa cad4 c7bf cf37 5541 9c82 d33f
00000780: a5c0 41d6 0130 eb3f 9fe3 fed6 1a09 dd3f
00000790: ed19 5236 dcae cb3f c4e8 6703 7e50 cfbf
000007a0: a741 3f10 2ca2 f83f a069 b521 bba5 d4bf
000007b0: 0bac 34ba 6b42 d3bf 2f98 e257 9419 c7bf
000007c0: 6644 2099 d81b d8bf adac d587 006f fbbf
000007d0: bf3c bc2f 1b97 d53f 33d2 f377 0717 a73f
000007e0: 0c61 5c3c 8e7f f2bf a7be d360 a7dd d2bf
000007f0: 8764 cf47 1f68 efbf 7888 1a5c 892d dc3f
-0.7373797984463571 -0.7221193720381915 -0.03158940839138726 -0.5216857382883047 0.5814776812161315 -0.7635544138759172 -0.41418632428193347 0.47644421615614085
0.19184844161536865 -0.2831309476706909 -0.14894945867605774 0.027373300251159232 -0.35794178935158444 -0.2383283535827316 -0.11680171619039346 0.7019060736785236
0.0938507964867101 -0.0209313659111883 0.36395394301276235 0.13599210301551828 0.7436169332699818 -0.09471886869448011 -0.6995943036728266 -0.13823551764809058
0.4023171379082406 -0.42496290212591414 0.09347710944602713 -0.19587901376187886 -0.4038659815900988 1.0542061654412862 -0.027224930055033746 1.2561173695121666
0.45408219055982263 0.5339030743760164 -0.22964698094092303 -0.7632388127502961 0.1641089527154265 -0.5033125673538174 -0.02188562472549803 -0.22909190074119182
-0.351589351046148 -0.7074601818207128 -0.6144218202872405 -0.036674013016322934 -1.0707275710224167 1.374690044818795 0.9744598814833294 -0.07178580692419752
0.1378100862229173 0.5252618092694601 0.17125823082916877 -0.5855657570112761 -0.3114986191531499 -0.7588243911556655 0.413219627071239 -0.8288736262485783
0.19579824357200679 1.104012888055084 0.42017977145448476 0.990166584562698 -0.9550378336949509 -0.686457463943256 -0.03850480953941518 -0.16194890568849815
0.6368975129126885 -0.41683030896609136 -0.2349326435413098 0.1774512824454232 -0.3037785178413673 -0.6949411349016769 -0.1630181753040398 -0.607354311119432
-0.146595845577349 0.05310313902040619 -0.7940291944859537 -0.18225810066158452 0.9188196863036022 -0.5116587698377141 -0.6438360716571635 -0.10978836349488261
0.7053159479826797 0.020199501337589756 -0.5163852106192508 0.1520434865443958 0.5096311351028853 -0.5639717390442862 -1.1824071038196051 -1.2942656955252403
-1.2191552864906035 0.019021128263713372 0.4227497390233253 -0.6709770787545073 0.29011008537872685 -0.10383454629778549 -0.8384394980611825 -0.832149262036985
-0.8345031973297915 1.2038966802872306 -0.9046186499516838 -1.0856948362360657 0.1179930820618289 0.2928696651291037 0.06407325154427562 1.1736866637298657
0.9201094128665934 -0.6596089655598731 0.15201230436300342 0.4678232244067614 0.5728120698123953 0.19180929595942847 0.5815383899425175 -0.5895303364706729
0.7078002639372021 0.7809368843014608 -0.2946602626544559 -0.5141491588306528 0.6195358910789209 -0.9864113555166977 -0.36649191032781187 -0.5533750200357704
-0.39874956844480275 0.17244142475241178 -0.07460513262037502 0.9060528558150499 0.6830449545944204 -0.42026842682445975 0.4854066194551266 0.6230414113061394
0.34885188745557055 0.03414365224789794 -0.3129027469807857 0.7572491322615861 -1.0115808196621021 -0.14708980836847646 1.2198433855678708 0.14693426580424407
1.0917667799477455 0.409048590059589 -0.9879658187001056 -0.8735148872600184 0.22673854800903584 0.29664147161455595 0.6092633036207027 0.1752515201385378
-0.05773162192623564 -1.4573664631804348 -0.22735649556113394 0.04630014749671324 0.44708497548861303 0.4739550426655392 -0.6032618390404724 0.06730147400828149
-0.6309880412060863 0.1303124996731269 0.3658610129296664 -0.8406430128341367 0.1096958410529081 -0.10027280904268471 1.1158646893534676 -1.0581260869014084
-0.6991590267457797 -0.4231009592661255 0.1260550630268281 0.26844507524901196 -0.0390134136130511 -0.42278645047019814 -0.1894349560111313 0.08514110730795948
0.35757948387055744 0.6618073234903961 -0.6411147887845277 0.09024019101276458 0.47471295604836833 0.01406938618201093 -0.28855511726178923 0.048840724817834864
0.523019737625382 -0.280242162095462 -0.30008944839821694 0.24784321324299918 0.8364419150742802 -1.6418515777131135 -0.5325116184107173 0.011227387294522053
0.2792096314569717 0.14020102466075296 -0.1424645552551772 1.3131722356582722 -0.14988240588927024 -0.6133593393551424 0.6006559354594786 -0.15260150741947848
1.0711346208999628 0.08274054306722384 1.128277355272085 0.6575508116526207 0.25273977777957723 -0.5606294219841382 -1.051555441522794 -1.3268212174783052
-0.7152376423622631 0.13338082069200474 -0.027333783952477708 0.11864954714502693 0.008563506952613322 0.10955508563146267 -0.27604717407508594 -1.3573677370084636
0.05409957849900721 0.017163732865503673 0.17094908333042202 0.14437512732887814 0.6344592667717586 0.08742637067312638 -0.2832176553780303 -0.4488536181383263
-0.6892610416726376 0.24063348402944257 -0.6422945987272299 0.733132688201909 -0.4827153007033707 0.696373375504576 -0.608154925476753 0.42812426237005896
-0.10011047699934643 0.6831427727081444 -0.5274688707320779 -0.18668474722443937 0.5344004828324345 0.8192458942204294 -0.15233193514261123 0.479426556239296
0.37920542878644203 0.8442792114044785 0.011991065346427932 -0.3876425328886372 -0.12967981438161374 0.17103312479692934 -0.18618142342450436 0.3048468244568285
0.8496102509216327 0.4536807155196189 0.21627380993250203 -0.24464392820647707 1.5395928034450692 -0.32261541644916214 -0.3009290045180825 -0.18046812335268345
-0.3766995902415772 -1.7146001153985637 0.33734779035235 0.045097573654775756 -1.1561415059896403 -0.29477867561125 -0.9814602282086903 0.44027933115479057

b1 f8 [1, 128]
00000000: 3819 9be5 4244 e13f d83c 3c5c e80a dc3f
00000010: b8d0 756f 1a60 c93f dd7d 375d 2a70 c83f
00000020: c527 bc35 75a9 bebf 4595 159d 6584 d0bf
00000030: f52c 4c3e 41da c8bf c37d 62d9 deca c53f
00000040: a368 0ff4 051a df3f 1551 1dd3 3918 de3f
00000050: 9d21 dd71 e96b ef3f 4c32 82dc cef9 afbf
00000060: b0de 8a67 bb18 d63f a18f 8330 ada1 ce3f
00000070: 9b83 d3e0 86f9 d5bf 3b1a 9f18 af7e dd3f
00000080: 01f0 d19d 65e1 e0bf de4c 200e 7d15 d2bf
00000090: 1625 e1ba 714a c03f 8ed7 3b71 6085 d03f
000000a0: 68ac 3b06 318b c23f 9f6b c6f5 33d1 e1bf
000000b0: 8f29 426b 9862 db3f bca8 cca6 8e68 bebf
000000c0: e20b 0b1f 02bb d73f c283 2ad5 672e b9bf
000000d0: 267c f93d 34ab df3f 5f33 7fea e01c e63f
000000e0: 1bc1 2223 68e9 9abf 14b9 aca1 ddeb d5bf
000000f0: 498a 3b7a f79b d4bf ee70 13a6 a85e e13f
00000100: 038e 10bd 6497 ce3f c991 2bc9 752b c0bf
00000110: 2785 dffc b4d1 db3f 1c0a 7bb5 d0ad d83f
00000120: 7763 88ee 0724 d7bf 1c32 01ff 18c5 a73f
00000130: 0c24 d5a9 ce25 95bf 9eb3 aaab fc07 bcbf
00000140: 3c0a 36e7 fee1 e43f 9d85 6b80 9b56 d5bf
00000150: 2d5f 429b 051f 933f 92fa a348 013f dabf
00000160: eeb7 6283 21f0 e73f 6b48 934d 074b e9bf
00000170: 8976 5791 c16f b4bf 352a 322f 7eda ddbf
00000180: ed81 bd4b 7a36 d0bf 3902 9a04 5edd dabf
00000190: e027 cc7c cea6 c93f becb 3012 841c f13f
000001a0: f0f0 18b4 8a5c cbbf 0401 fa80 795a d4bf
000001b0: 3e9e e6fa f96b aa3f 1d06 1497 481b dd3f
000001c0: f257 5182 2c1b d0bf 8ead 5b83 772a e33f
000001d0: de4a 3946 7f70 c1bf 574f 3a08 1629 ae3f
000001e0: 92a1 a2ad c16d e03f b6c6 7766 00ad c33f
000001f0: 4afc f7f3 c4ec e03f 1b67 ef7a c653 dcbf
00000200: 0ba2 ed30 5e59 dc3f f2fe 8e52 5932 b5bf
00000210: 9528 72b0 7045 a33f 1baa 6e59 dfb0 a23f
00000220: 026b e2a2 60b6 debf 5316 8b10 4c92 7d3f
00000230: e0b7 2603 ae99 adbf 0738 576c a526 c7bf
00000240: e5c7 6f60 5c2e c5bf a87c 484e 3a27 d3bf
00000250: 1875 599a 04e8 d3bf a79f a86d 2bd1 d7bf
00000260: 7d0d 6840 763c eabf 7cae 0b3b c178 de3f
00000270: d6bc 6b84 24d0 d3bf 4a67 43e6 f1c6 ce3f
00000280: 3910 841a 415e dc3f 916b 1e06 ea70 c33f
00000290: 53a5 e7dc eb1c e03f abc7 f429 856f ce3f
000002a0: 3846 5fa9 4401 b4bf 2790 32fa 976f d03f
000002b0: 342d b7ef 4640 e33f 1744 d885 1a45 b3bf
000002c0: 5467 8315 be7b 98bf eac2 3ad9 922a c2bf
000002d0: 4118 58ff 03e6 d43f c6a3 89c8 6c79 c33f
000002e0: 5f8e aaf3 7b7c cebf 5027 3601 7038 c8bf
000002f0: 369c 42ac 2067 d63f c6e6 dac6 75bf d43f
00000300: 5a57 8bf5 e225 9ebf 8451 2a2c 3b87 c23f
00000310: 7de3 197a d023 90bf 1f63 5613 cc0c adbf
00000320: 465b f69c b0cf c93f 2f34 a59a eebb d83f
00000330: eba4 e49b 3de1 d4bf bb4e 8253 a3d4 cbbf
00000340: 938b c1a1 a37d d13f a716 3927 f56a df3f
00000350: bd76 1baf 4dda e3bf 2241 54af d1c4 b63f
00000360: 4b0c 8747 a7f2 c93f d2ba 6543 d025 dcbf
00000370: 06f0 a551 b0ab be3f f5f1 54d9 c851 d2bf
00000380: 87de e0d6 a989 df3f 1672 6f84 d05d ea3f
00000390: 97aa 2462 bc24 bebf 6ebb 19a0 3b53 9fbf
000003a0: cb2d 6dea 3cf7 d7bf e393 4ded 6401 de3f
000003b0: b503 2e4d 888c ce3f c183 e669 082c bb3f
000003c0: aea4 cc22 72f0 d8bf 2632 beda 73f4 bcbf
000003d0: ccd7 dbfa 6ce7 dcbf cf1f d821 78ea cebf
000003e0: e832 9748 6116 d3bf 91eb 698a ec69 d03f
000003f0: 98ef 5de2 2d5d c13f c89a 810d 6f28 a93f
0.5395826801766708 0.4381657505736718 0.198245338844236 0.19092301894759958 -0.11977322160615163 -0.2580808671976523 -0.19416060964463325 0.17025361647118417
0.4859633334541604 0.47022863022472566 0.9819228385832052 -0.06245275918727042 0.34525952445572283 0.23930897587626723 -0.3433549113815901 0.46085717586939595
-0.5275142748282634 -0.2825615537596614 0.1272718584535048 0.25814066942199865 0.1448727875170761 -0.5567874717993283 0.4278927848287361 -0.11878291675808134
0.37078907996709465 -0.09836434320688084 0.4948244672031613 0.6910252170579091 -0.026281001228825134 -0.34252110279602843 -0.3220194524457481 0.5428050273581257
0.23899516326592626 -0.1263262970234236 0.43467449850693857 0.3856088421127042 -0.36157415670600507 0.04642561066484438 -0.02065203582359136 -0.10949687186321319
0.6525873676149057 -0.3334110979177128 0.01867302665831898 -0.41009552091410584 0.7480628553510067 -0.7904087557929079 -0.07983026312236964 -0.46646074875812654
-0.25332505604276784 -0.41976118516325617 0.20040303319575425 1.0694618902750643 -0.21376165193385743 -0.31802213282937 0.05160504520182173 0.45479025605900053
-0.25165856100409123 0.5989339414203856 -0.13624564103027742 0.058907211784712636 0.5133980170549413 0.15371708873094797 0.5289025082601111 -0.44261323933970836
0.4429545858206729 -0.08279951348867678 0.0376391616237736 0.036505679766680475 -0.4798814383190547 0.0072195979379948315 -0.0578131083342297 -0.18086688795159508
-0.1654773207552004 -0.29926927227820466 -0.311036253673437 -0.37214170178276124 -0.8198806055010405 0.47612028852629584 -0.30957901889537476 0.24044631713223402
0.4432528265899723 0.1518833665730566 0.5035304369495556 0.23777832554475017 -0.07814435133993747 0.25681113656378546 0.6015963251060499 -0.07527318732924503
-0.02390954023653731 -0.1419242439929101 0.32653903900098064 0.15214309493901917 -0.23817395589604737 -0.18922233637959573 0.3500444109180906 0.3241857950157335
-0.029441400753817383 0.1447519269610319 -0.01576162095304622 -0.05673825965931755 0.2016506925981167 0.38647046186526074 -0.32624759887637705 -0.21742669656361166
0.27329340740669145 0.490903175643647 -0.6203983707489084 0.08894072084899965 0.2027176951652073 -0.43980795461440636 0.11980726235736947 -0.28624173377809764
0.4927773092672187 0.8239519678714398 -0.11774804493021872 -0.03059094586063387 -0.374465207035169 0.4688350980198363 0.23866370934049788 0.10614063821277765
-0.38967564962747303 -0.11310504999546164 -0.45162510393072064 -0.2415304341559463 -0.29824096764495645 0.25646508709876864 0.13565610459397415 0.04913661041137157

w2 f8 [128, 3]
00000000: 56aa b256 8e9a ef3f ac50 5adb 9250 e5bf
00000010: a088 bfea 28f9 d0bf 43ab 585a f667 e9bf
00000020: ed5f 9e86 f098 e83f 4113 3e64 4a06 913f
00000030: bd44 b900 6fae e9bf 75ac c668 e948 b13f
00000040: c812 e5f7 8c72 e43f 70b0 08c4 f6ea de3f
00000050: b8fe ae79 4aed e23f 46e4 dc33 385b e5bf
00000060: 2d44 bb63 39b3 f3bf 85cd 116d 55ef e13f
00000070: c23c 20a1 f81f f33f 03f6 2ad4 1237 c53f
00000080: d4bb 1922 c6aa e53f 7e6e 37b9 507c f3bf
00000090: 384e 166f 0c75 e83f f934 935e 31fe e03f
000000a0: c8b9 8770 b563 f0bf f32f df07 5c1e bebf
000000b0: bfa4 742f f446 d1bf 7f54 005f d446 d13f
000000c0: 0ea5 0ed8 ab28 eb3f dc28 9b61 c2e6 b13f
000000d0: ea10 10f7 d9c7 f2bf c399 72b3 ab96 dd3f
000000e0: 9146 c100 42fc f2bf 8015 7030 03f2 df3f
000000f0: bfa8 40a6 92fa ef3f 7bc6 52ff 8783 d33f
00000100: 0223 9ba5 672c f3bf d46f 51d5 2466 e5bf
00000110: 9230 0bc2 47ea b9bf b371 4f04 ca3f ee3f
00000120: 72cd 2027 4d45 f33f 9e29 f373 ab11 d2bf
00000130: ac0c bae0 bd53 f0bf b20c 2883 a886 e23f
00000140: af95 7049 7268 e13f 3964 a70e 9eba ebbf
00000150: 0acb 6560 2991 f0bf 4630 1af5 6080 cc3f
00000160: f1be dd72 369f ec3f 4636 48f8 f7f0 eabf
00000170: d20e 351a 677e ddbf 97ad ba55 6f35 ef3f
00000180: fe4e c28c 52f4 dc3f 46bb 7fcf 7b03 efbf
00000190: 1989 cfb2 fba7 82bf c261 3046 48fe dd3f
000001a0: 67be 39d8 376a e8bf ddc2 2d77 1f4c c23f
000001b0: 0caf 6c73 86a9 e3bf 5a3c 50fd b3a6 d23f
000001c0: 3324 bd3d f837 e03f a0c3 a9a4 69de bdbf
000001d0: b047 ca4f 9912 e73f 83be baa0 e380 debf
000001e0: 3a7d feba 2310 ea3f f172 0e9e 5b13 d53f
000001f0: 55eb b480 22b2 ebbf 5e73 7576 8a31 f33f
00000200: 9b45 7c4b 2490 e2bf 87a6 3648 da8d ddbf
00000210: 3a0b 7a80 c272 f33f a097 71fb d0b7 ecbf
00000220: 8dcf 0186 9573 ba3f 7edd a8af 8ef2 c7bf
00000230: f84b 4af8 7dbd e93f 9640 9138 086d e5bf
00000240: 06ce 67a4 f231 dbbf a848 d8d3 0ecc ea3f
00000250: f26b 18e1 f20c e7bf 1093 4442 85be b53f
00000260: 3ded fa7c 5551 a5bf 5a6c df4d 409e afbf
00000270: 2351 4d43 08ec e33f c1fe 43d1 9aa9 c0bf
00000280: 5997 a863 d9c7 e0bf a59c 4bd6 80dd ddbf
00000290: 03f5 23a4 c657 e0bf 91ae b603 3683 eb3f
000002a0: dfdd a696 195e e3bf a9de 28af 7947 e63f
000002b0: 2f17 b6bb a347 b4bf 26a7 8f24 0716 ef3f
000002c0: 80ec 1bfe f99c debf e669 736b aa9f e4bf
000002d0: adc0 60d0 f97d e53f 6292 da22 5914 e0bf
000002e0: cd01 e402 b104 b53f be74 4069 595e ee3f
000002f0: 8948 296d 3744 d13f 207c af0d d0a2 f4bf
00000300: ef1d 53c7 44e7 ecbf 556c 68d7 031a e13f
00000310: ddda 6373 2e1a d13f f99b a502 c9d4 cc3f
00000320: 93ea b618 60e7 933f d84d 568a 47f4 c6bf
00000330: b0fd 241e 0910 e63f 2c6a 9209 e8e8 eebf
00000340: 058f 3e70 77b8 e03f 7de2 d0ff 014a ddbf
00000350: 5656 8478 27b0 bc3f 67cb 3021 09d6 d43f
00000360: c8b8 c2af d382 e13f 3275 8f0b 2dee c2bf
00000370: a07e e3ec 405e dcbf efe6 538e f0d3 c63f
00000380: d81f d7eb 6306 ef3f 2b63 21ac a14d f5bf
00000390: a40f a7a0 eb9a bd3f 958f fb73 6858 b6bf
000003a0: c484 f916 9f6d d03f 819c beb6 c47c dabf
000003b0: 03a3 bdd3 1afc e0bf e305 9615 3519 f93f
000003c0: 7312 da87 297c e03f fd1b 50c9 7681 e33f
000003d0: c2dc 18cc 15e5 f2bf 7449 bab2 7a6e d2bf
000003e0: f474 bd99 9e81 e73f 89ae 14d6 1697 e3bf
000003f0: 2928 c5e1 438d e63f 34f7 1b77 b70d d7bf
00000400: 6985 2900 ecab d3bf 260f 47fa a88b dcbf
00000410: 73d0 8ede 560c e5bf 9d9a a307 988b f13f
00000420: 8fcc 83d4 94c9 e33f 02c5 9e14 d57b e03f
00000430: 321f 3477 dcd0 f1bf 9e96 a273 1b35 f23f
00000440: c984 d2f2 d8e8 efbf 05c8 2cd1 8ceb d1bf
00000450: 2790 78cb 3b96 e8bf 56ab b469 3d3b e73f
00000460: d5eb 4bcf 2d09 b33f 5174 5f6b bb1b f4bf
00000470: 6b87 d0b4 b20b e63f 259b dddf f524 d63f
00000480: cf37 911c be7e f1bf 5800 72e0 49a2 ee3f
00000490: 07f5 78dc 538a d73f ed26 092c 584a d03f
000004a0: c4e3 fcd6 24b0 ce3f 75a0 0823 d914 e6bf
000004b0: 2575 651f 529b e3bf d8a9 c639 dc7f e63f
000004c0: c216 80f1 8f25 ddbf d082 f7ee 23a2 ef3f
000004d0: 7e87 abb3 862b dd3f 7c3f b08f 3571 f7bf
000004e0: 58f8 e37d 9a75 c6bf ede7 995d 8d8c f23f
000004f0: fb6b c7ee 6207 eebf 07c1 c1a0 27e9 d93f
00000500: e4e9 2773 c7c2 ee3f 3f85 e78f 8247 f8bf
00000510: 5633 a245 e055 c2bf 48af 4743 7147 ba3f
00000520: 39f1 2a2d 7fd5 df3f 0557 c54a 62a3 dfbf
00000530: a2dc c0a5 3cda e73f 5f4d 4a8a 04c6 d3bf
00000540: e80a 36da 04a3 00bf 9220 87a6 9b35 f13f
00000550: 964d b6d5 5e97 f2bf 198b 6e03 7702 f2bf
00000560: e90b c4ac 132b ce3f 15fa 998e 77d1 ef3f
00000570: 8b23 764e bc8e e53f fec8 1f3c de2d d9bf
00000580: d442 ab62 a97e dcbf 87c5 5ad9 0223 efbf
00000590: baed 481d 7cdb b5bf 5085 13e5 0ffe f13f
000005a0: 3f46 7507 ba1b e4bf 8d72 0cfa 8958 d7bf
000005b0: a803 2715 ff11 ed3f 7052 3981 4a82 efbf
000005c0: 51df 1ca5 26e1 f53f 8113 65d6 5fdb dbbf
000005d0: 2cf4 0df2 b944 debf fbd5 d291 5c08 f13f
000005e0: 3b55 b20d 0326 e1bf 26e7 4363 b9b0 e53f
000005f0: cc01 4703 3f0e b23f 39d9 687e 2867 eabf
00000600: 2d40 e73a f057 f33f a69e b97a f6bf b2bf
00000610: 39a9 14d8 2194 e6bf 092a 10e9 0536 e4bf
00000620: 60e8 b65a 7e4e df3f 1732 0f49 f423 d3bf
00000630: b49b 6bc6 6fc7 efbf c765 b327 7f5c dc3f
00000640: 50c9 d81f 67d1 e13f b2ff f686 7097 cd3f
00000650: 3890 ccb5 1633 e7bf 7ddc 1f93 79e0 d83f
00000660: 5c5e dc95 1317 efbf de61 9506 4f58 ef3f
00000670: b005 9847 b1b3 94bf 14fb 4d9a 308e f03f
00000680: e14f 592e b115 ddbf 0961 43f7 6db0 e9bf
00000690: a156 2fea 5954 d23f 75c8 9d31 1a25 debf
000006a0: 1ff0 c77b 8612 ca3f 9a6f 72cc fd0a fb3f
000006b0: 307f 8c19 7cfa cfbf 2203 e3be 7720 f4bf
000006c0: 5105 77d9 56d0 cb3f 9f4e 3f8a 0759 d23f
000006d0: 6b71 05eb 6b4a e1bf a525 5ff5 727e eabf
000006e0: bd8c 8e5b e69d e53f e83a 79eb c788 c43f
000006f0: b846 1512 2613 e13f c1aa 47bd 67a0 b9bf
00000700: 712d 29dd 8426 dabf d73a 8f74 7698 d53f
00000710: f3d9 baeb cd29 c43f 83c6 0f4c 79d5 e9bf
00000720: 8adc e6c8 e66c dcbf 5f0d eafa 2d2b e73f
00000730: 41a2 6cfe b69b dcbf 7b91 4fb9 576d ebbf
00000740: d204 46dd c258 ef3f 696e 736c 0598 cebf
00000750: efa1 5edc 8d7e e1bf 6cb1 d6f5 0763 c7bf
00000760: cfff 389a 760e da3f 29ea d861 d4bf f53f
00000770: 392c 5838 d8dd eebf c11d 08e3 0cb1 e0bf
00000780: 47e0 3c62 5de2 e8bf bb5e 1a9e 458b c2bf
00000790: fe2e deee 94a1 e73f 7490 49e8 0018 e4bf
000007a0: 55f9 d9ec 1698 ed3f cc4f d657 89af c4bf
000007b0: f1ff 000c 1316 f3bf e65b ab5b 84f8 b9bf
000007c0: 9873 8229 2625 f53f c7c4 7651 e589 d0bf
000007d0: 435e 5cd9 a7c2 ea3f c3a7 0feb b95a e6bf
000007e0: 0f0a 8fec 7ec5 e8bf 62d4 631c 2364 f13f
000007f0: fec7 c309 5d19 c7bf 0769 e000 dfd2 dc3f
0.9876167004889094 -0.6660856518015144 -0.26520750927569203 -0.7939407124116332 0.7686693791647464 0.016625559204402455 -0.8025431646475664 0.06751879508981225
0.6389832345672284 0.48309106010379477 0.5914661766655263 -0.6673851979204606 -1.2312559028398582 0.560465539003801 1.1953054708463218 0.1657432113624254
0.6770964303994966 -1.2178504214306538 0.7642881555243042 0.5310294005554673 -1.024342956133852 -0.11765074913199651 -0.2699556792673085 0.2699480941531149
0.8487147540919595 0.0699273575111507 -1.173791852082156 0.4623212101381819 -1.1865863828174137 0.49914626817948005 0.9993375060196498 0.3049030297653201
-1.198341032885026 -0.668718735348643 -0.10123108374972592 0.9452867588220698 1.2044192818110244 -0.2823284752199927 -1.0204447534932042 0.5789377748154918
0.5439998087282926 -0.8665304456909616 -1.0354398503811262 0.222667808226449 0.8944351428490035 -0.8419151162394847 -0.4608400112085579 0.9752728151701601
0.4524122595405372 -0.9691752484048741 -0.009109465021485396 0.46864516119378774 -0.7629660819201945 0.14294808692240837 -0.6144439939866699 0.2914247487796665
0.5068322378002733 -0.11667499799820158 0.7210203703309528 -0.4766167707084394 0.8144701626041873 0.32930651126098015 -0.8654949678233189 1.1995949389740512
-0.5800954317402786 -0.46178299953553686 1.2155175226805128 -0.8974385176668314 0.10332617303521215 -0.1870897634232555 0.8043813561838524 -0.6695595841247435
-0.4249235730669344 0.8374094140620132 -0.7203306576151347 0.08493836276882072 -0.04163615370404237 -0.06175423575015122 0.6225625338070454 -0.1301759263806073
-0.5243956514793623 -0.46664448668748043 -0.5107148366802509 0.8597669670611642 -0.6052368109148424 0.6962250157439104 -0.07921813328547665 0.9714389528355454
-0.47833108725871654 -0.6444904421471704 0.6716279096490517 -0.5024839096773344 0.08210283585140772 0.9490172439288 0.26978860531119914 -1.2897491964902272
-0.9032310383853978 0.5344256598649603 0.2672229887825049 0.22524368886226379 0.0194373145184082 -0.17932981734030196 0.689457472682923 -0.9659309565498169
0.5225178901932571 -0.4576420782282538 0.1120628995161835 0.3255637001158704 0.5472200806450696 -0.14789355339500215 -0.44325278409631075 0.178342885490387
0.9695300680405081 -1.331453010925723 0.11564514801199138 -0.08728649932487394 0.2566907619821672 -0.4138652596106525 -0.5307745109140288 1.5686541407779877
0.5151565221172646 0.609553712071715 -1.18092899060666 -0.28799312070727656 0.7345726969466839 -0.6121935063615221 0.7047442826817633 -0.36021219856035036
-0.30736827865447097 -0.4460241741291945 -0.6577562662919391 1.0965805338288768 0.61835710055165 0.5151162531603009 -1.1134915024176277 1.1379656331058992
-0.9971737616180231 -0.28000183512915583 -0.7683390592615112 0.7259814323964331 0.07435880957557058 -1.2567705339672737 0.688927987245035 0.3460058866680121
-1.0934430232914456 0.9573106177995312 0.36781784563557135 0.2545376234089492 0.239750485395943 -0.6900449451686784 -0.6127100575646734 0.703107941478545
-0.4554176195527867 0.9885425250359621 0.4557816271391103 -1.465138970645028 -0.17546397349355192 1.1593145042702375 -0.938401666989534 0.4048556394473199
0.9612767457140845 -1.517458498121712 -0.14324572944715425 0.10265262501314709 0.49740580950653485 -0.4943471651252909 0.7453902470941964 -0.30896104340464164
-3.173216398535077e-05 1.0755878930085925 -1.1619556759004346 -1.1256017812781407 0.23568960128622443 0.9943197045502666 0.673673775906637 -0.39342456695079864
-0.44523081432002454 -0.973023819466264 -0.08538032259905651 1.1245268772402888 -0.6283846040407254 -0.3647789899712642 0.9084468281872562 -0.9846546672730039
1.3674684953420704 -0.43526454865450864 -0.47294472349296046 1.0645414062722682 -0.5358901278984044 0.6778227747701961 0.07052987890256829 -0.8250925511299904
1.2089693356429152 -0.07324162002771092 -0.7055825443579017 -0.6315946151747208 0.4891658674129129 -0.29906947264388023 -0.9930952906987529 0.44314555050877086
0.556811868859123 0.2311840685852054 -0.7249864149821468 0.3887008606684004 -0.9715669562310256 0.9795298698982682 -0.02021672248338796 1.034714319946663
-0.45444898153550467 -0.8027868108138431 0.2863983904802386 -0.47101454587312414 0.2036903480910732 1.6901834474765338 -0.24983168838024872 -1.2579266983522719
0.21729550951389823 0.28668392658912895 -0.5403346624621411 -0.8279356758513826 0.6755248821467813 0.1604242229245394 0.5335874894319295 -0.10010383959858428
-0.4086010131620333 0.3374305856968198 0.15752576837776608 -0.8073088155344553 -0.44414682025257746 0.7240209484738606 -0.4470040783512879 -0.8570974940635517
0.9795851060627234 -0.23901431842283508 -0.5466985038847819 -0.18270968917694164 0.40713276921087255 1.3593334028397612 -0.9645806408383414 -0.5216125902379006
-0.7776324194628693 -0.14487524242280422 0.7384743371380578 -0.6279301201689251 0.9248156190877049 -0.16160694874690618 -1.1928892582800439 -0.101448318844049
1.3215695973842454 -0.2584164901300707 0.8362616772964845 -0.6985749808347851 -0.7741083736694366 1.0869475468619147 -0.18046153046412877 0.45037055097203943

b2 f8 [1, 3]
00000000: 0c27 18da 4bd4 c5bf 41b9 d279 d92d e0bf
00000010: 0fc3 5870 eca2 e53f
-0.17054126881731013 -0.5055968646391095 0.6761381334564208
